results/ppo/My Behavior.onnx (onnx, 75519 bytes, 7 tensors)

action_model._continuous_distribution.log_sigma f4 [1, 3]
0	0x3bb85ac7	0.005626056
1	0xbbf51a13	-0.007479915
2	0xbce9cf28	-0.028541163

action_model._continuous_distribution.mu.bias f4 [3]
0	0xba8f7739	-0.0010945565
1	0xb83623e4	-4.3425607e-05
2	0x3bd1d1f2	0.0064032013

action_model._continuous_distribution.mu.weight f4 [3, 128]
0	0xbc5e13b3	-0.013554501
1	0x3cc9d0d3	0.024635708
2	0xbb85879d	-0.0040750043
3	0x3c080d32	0.008303927
4	0xbc0eef80	-0.008724093
5	0x3c06f5e8	0.00823734
6	0x3b926165	0.0044671767
7	0xbc1c3568	-0.009534217
8	0x3cf15c95	0.029463092
9	0x3d057908	0.032586128
10	0x3c3c0266	0.011475181
11	0x3ce320f7	0.02772568
12	0xba64def7	-0.0008730734
13	0x3c7deede	0.015498845
14	0xbc1e2bab	-0.009653966
15	0xbab4f60f	-0.0013806241
16	0x3c5973b1	0.013272212
17	0xbd3bb2cd	-0.045824815
18	0xba0f0677	-0.00054559804
19	0x3b39412f	0.0028267612
20	0xbbe858a2	-0.007090644
21	0xbc145585	-0.009053593
22	0x3cb65bd1	0.022260578
23	0x3c84c303	0.01620627
24	0xbc450f6a	-0.012027601
25	0xbc8faafc	-0.017537586
26	0xbc5b6ffa	-0.0133933965
27	0x3c35de59	0.011100375
28	0x3c278e93	0.010226863
29	0xbbfa0a40	-0.0076306164
30	0x3be9d468	0.0071359165
31	0xbc24926a	-0.010044673
32	0x3d01d2bd	0.031695116
33	0xbc5864db	-0.01320764
34	0xbce28818	-0.027652785
35	0xbd0c359d	-0.034230817
36	0xbd182268	-0.037142187
37	0xbcc39cf1	-0.023878546
38	0xbc6bda25	-0.014395271
39	0x3c97a4e8	0.01851125
40	0xbc895ab5	-0.016766885
41	0xbd03aad4	-0.032145336
42	0x3d544957	0.051827755
43	0x3cf901c8	0.030396357
44	0xbcb8c83a	-0.022556413
45	0x3cac3324	0.02102048
46	0x3cabb703	0.02096129
47	0x3cacb5de	0.021082815
48	0xbb9c5bb6	-0.004771675
49	0xbcd71ee2	-0.026259843
50	0x3c7d603e	0.01546484
51	0x3d231313	0.039813112
52	0xbd0b0aeb	-0.03394596
53	0xbc94c23c	-0.018159024
54	0x3c83a4ab	0.01606973
55	0xbc6eddd4	-0.014579255
56	0x3b9c4c7c	0.00476986
57	0x3cdaa022	0.026687685
58	0xbcc6f760	-0.02428788
59	0x3c4bb055	0.012432178
60	0xbc15a936	-0.009134581
61	0x3a9da691	0.001202779
62	0xbd40c5e5	-0.047063727
63	0x3c16cd29	0.009204187
64	0xb9f8c4a8	-0.00047448766
65	0x3d46c823	0.04853071
66	0xbbb8ce15	-0.0056398013
67	0x3c22c6fa	0.009935135
68	0x3c4694b8	0.012120418
69	0xbc9b0be7	-0.018926574
70	0x3be3fd50	0.0069576874
71	0x3b6e55de	0.0036367099
72	0xbbe782a5	-0.0070651346
73	0x3d0abc5e	0.033871047
74	0xbb597924	-0.0033183778
75	0x3d174bd5	0.036937553
76	0x3c986d32	0.018606756
77	0x3c171ccb	0.009223173
78	0xbcbfdfe4	-0.023422189
79	0x3ca465e8	0.020068124
80	0xbc1b8146	-0.00949127
81	0x3c6c5255	0.014423926
82	0xbc94e34b	-0.018174788
83	0x3c96353e	0.018335935
84	0xbbdb9221	-0.0067007695
85	0x3cefc0f0	0.029266804
86	0xbbf3e72b	-0.007443329
87	0xbbcbed4e	-0.0062233573
88	0xbb369b1d	-0.002786345
89	0x3c2693bc	0.010167059
90	0xbbada21a	-0.005298865
91	0x3c783547	0.015149421
92	0xbbb28f3c	-0.005449204
93	0x3aa24e7e	0.0012383012
94	0xbcc8196c	-0.024426185
95	0x3d493ec4	0.049132124
96	0x3bb6c994	0.005578229
97	0x3bda8566	0.0066687344
98	0x3c654ebd	0.013995823
99	0xbc483336	-0.012219241
100	0x3ab3acd6	0.0013708125
101	0x3c6148d1	0.013750271
102	0x3be082f3	0.006851548
103	0x3c912278	0.017716631
104	0x3a32dc31	0.0006822972
105	0x3cad23c5	0.02113522
106	0xbbad9491	-0.0052972515
107	0x3c69e9b2	0.014276909
108	0xbc9d941e	-0.019235667
109	0x3bbae83e	0.005703955
110	0x3c07ee56	0.00829657
111	0x3c7c37d5	0.015394171
112	0xbb005268	-0.0019580368
113	0xbc7df267	-0.015499688
114	0x3bfdb838	0.007742908
115	0x3bb175bf	0.0054156478
116	0x3d1b638a	0.037936725
117	0xbca6eff3	-0.020378089
118	0xbca60b65	-0.020269105
119	0xbc36f4b0	-0.0111667365
120	0xbc3a3681	-0.011365534
121	0x3c77af86	0.015117532
122	0xb86e2e85	-5.6786947e-05
123	0xbb4b479f	-0.0031018031
124	0xbccb3fc8	-0.024810687
125	0x3bfa705f	0.00764279
126	0xbbe88170	-0.0070955083
127	0x3b9b904d	0.0047474266
128	0x3c142af4	0.009043444
129	0x3b00a8cb	0.0019631858
130	0xbac2f8b1	-0.0014875141
131	0xbca6188d	-0.020275379
132	0xbccb2c5a	-0.024801422
133	0xbc12a28c	-0.008949887
134	0xbb77a317	-0.0037786418
135	0xbc87f12b	-0.01659449
136	0x3c8b07af	0.016971437
137	0x3c84ad88	0.016196027
138	0x3c46ba58	0.012129389
139	0x3c32dbb7	0.010916642
140	0xbcb290e2	-0.021797601
141	0x3bd7fca6	0.0065913973
142	0x3a5626b6	0.00081692205
143	0xbbb5141f	-0.0055260803
144	0x3c134c95	0.008990427
145	0x3cd36729	0.025806027
146	0x3c4060f2	0.011741864
147	0x3bf67310	0.0075210407
148	0xbc2f4104	-0.010696653
149	0xbbb096fa	-0.0053890916
150	0x3d2232b0	0.03959912
151	0x3b06dab8	0.0020577144
152	0xbcad42ad	-0.021149958
153	0xbb6777b0	-0.0035319142
154	0x3c8bdcd5	0.017073074
155	0xbbaae7f7	-0.0052156406
156	0xbad12d9d	-0.0015959028
157	0x3c27b4ac	0.010235947
158	0xbab32894	-0.001366871
159	0xbca9f941	-0.020748736
160	0xbc52fd12	-0.0128777195
161	0xbc49e5f2	-0.01232289
162	0xba895605	-0.0010477906
163	0x3c8caf8e	0.017173555
164	0xbaf2bd90	-0.0018519629
165	0x3c235164	0.0099681355
166	0x3c61680c	0.013757717
167	0xbbc56138	-0.0060235523
168	0xbd3cdc85	-0.04610874
169	0x3c8a5810	0.016887695
170	0xbc84b56a	-0.016199786
171	0x3cc05490	0.023477823
172	0xbc4c0f04	-0.012454752
173	0xbc46ddc3	-0.012137833
174	0x3c9bfc47	0.019041194
175	0x3cccb509	0.024988668
176	0xbc1c5c1e	-0.009543447
177	0xbce041d7	-0.027375145
178	0x3b9f6d14	0.004865298
179	0x3bba9b69	0.005694796
180	0xbce5e79e	-0.028064545
181	0x3d000ad5	0.03126033
182	0x3ce7d32a	0.028298933
183	0xbc0b2d94	-0.008494753
184	0x3ce07736	0.027400594
185	0x3ce91c7e	0.028455969
186	0x3c866170	0.016403884
187	0x3b9dd6ba	0.004816857
188	0xbb531080	-0.003220588
189	0x3b86b15d	0.004110499
190	0xbbe0c021	-0.006858841
191	0x3bf9ffb6	0.00762936
192	0xbcbee8a0	-0.023304284
193	0x3c2e8160	0.010650963
194	0x3d12bf10	0.035826743
195	0xbb9b5699	-0.004740548
196	0x3c07e1ed	0.008293611
197	0x3bcec834	0.006310487
198	0xbb78b95d	-0.0037952282
199	0x3bc4bf57	0.006004255
200	0xbc2ff722	-0.010740073
201	0x3c8cbf37	0.017181022
202	0xbc8f5099	-0.017494487
203	0xbb8b07e0	-0.004242882
204	0x3a781e37	0.00094649516
205	0x3bee1b0d	0.0072664083
206	0xbc4f9aa5	-0.0126711475
207	0xbcbe79d2	-0.023251448
208	0xbcac5ec6	-0.021041285
209	0xbc90155d	-0.017588312
210	0xbc5e4c5f	-0.013568013
211	0xbb955987	-0.0045577916
212	0x3b7cde0b	0.0038584496
213	0xbc1cf05c	-0.0095787905
214	0x3ca99f61	0.02070588
215	0xbc2741b2	-0.010208534
216	0x3c7964c5	0.015221779
217	0x3d01f5ea	0.031728663
218	0xbc56995a	-0.013098085
219	0x3c5b435c	0.013382759
220	0xbc4c4717	-0.012468121
221	0x3c03baec	0.008040171
222	0x3b11480b	0.0022168185
223	0x3d25e244	0.040498987
224	0x3bc398ce	0.0059691435
225	0xbc5f6b8a	-0.013636479
226	0x3bf26eb8	0.0073984526
227	0x3c63a902	0.013895275
228	0x3b473e87	0.003040226
229	0xbd156b9d	-0.03647958
230	0xbc58daac	-0.013235729
231	0xbc6164ce	-0.013756944
232	0xbaf8ef1b	-0.0018992157
233	0xbcb12fa1	-0.021629157
234	0x3cd7c188	0.0263374
235	0x3c590451	0.013245658
236	0xbc13b877	-0.009016148
237	0xbcc39b22	-0.023877684
238	0xbc862735	-0.016376117
239	0x3d09a210	0.03360182
240	0xbb36df48	-0.0027904082
241	0x3c1b0a57	0.009462914
242	0x3d074d19	0.03303251
243	0xbbe7b193	-0.007070729
244	0xbc5dacd9	-0.01352998
245	0x3c81ec87	0.015859855
246	0xbc0123c1	-0.00788206
247	0x3c3fba5c	0.011702146
248	0x3a27c246	0.00063994934
249	0x3cbe7833	0.023250675
250	0xbcb4c328	-0.022065714
251	0xbc121e31	-0.008918331
252	0xbc8b80dc	-0.017029218
253	0x3c5d8955	0.013521512
254	0xbaec0215	-0.0018005992
255	0x3ae28105	0.0017280882

network_body.linear_encoder.seq_layers.0.bias f4 [128]
0	0x3bf13bb1	0.007361852
1	0x3c268031	0.010162399
2	0xbbc123d9	-0.005894166
3	0xbbdb0147	-0.006683502
4	0x39926256	0.00027920556
5	0xbc65c7da	-0.014024699
6	0x394a449b	0.00019289779
7	0xbb4b33c8	-0.0031006206
8	0xbb4f45e1	-0.0031627344
9	0xbaccf221	-0.0015636125
10	0xbb09e316	-0.0021039895
11	0x3afcd4c4	0.0019289483
12	0x3bb56f91	0.0055369814
13	0xba8b4e85	-0.0010628259
14	0x3a74e0cc	0.00093413587
15	0xb9c9b115	-0.00038469644
16	0xba79b4df	-0.0009525548
17	0x3bf1b94b	0.007376825
18	0xbbe9dd8f	-0.0071370075
19	0xbb4502dd	-0.003006152
20	0xbbe82fbc	-0.0070857685
21	0xbaa07b02	-0.001224369
22	0xbb82805c	-0.003982587
23	0xba11c888	-0.00055611925
24	0xb97369b8	-0.00023213669
25	0xbb052bca	-0.002032029
26	0x3b1abfd7	0.002361288
27	0x3b1842b7	0.0023233125
28	0xbaa25667	-0.0012385369
29	0xba57e39a	-0.00082355144
30	0xbbc6861d	-0.006058468
31	0xba617453	-0.00086004025
32	0x3ae6d51b	0.0017611118
33	0xbac43adb	-0.0014971154
34	0xbacd44a5	-0.0015660716
35	0xbc076131	-0.008262918
36	0xbb2a46ba	-0.0025982098
37	0xbc0bf74c	-0.008542847
38	0x3a0366d0	0.00050125737
39	0xb8795898	-5.9448736e-05
40	0xbb6ac2c0	-0.0035821646
41	0xbad1c728	-0.0016004788
42	0xbbb7695f	-0.005597278
43	0xba31bd7d	-0.000678025
44	0xbb14322e	-0.0022612917
45	0xba02a956	-0.00049843395
46	0x3a8c7bdd	0.0010718066
47	0xbaf7ae7a	-0.0018896603
48	0x3bd25d25	0.006419795
49	0xbc05917a	-0.00815236
50	0xbb8082a7	-0.003921825
51	0x38675123	5.5150256e-05
52	0xbb10b205	-0.0022078764
53	0xbb32e76a	-0.0027298578
54	0xbc51cee8	-0.012805678
55	0x3a0107b2	0.0004922106
56	0x3bf2ca59	0.0074093756
57	0x3c5b1ea4	0.0133740045
58	0xbbd69d2b	-0.0065494976
59	0xb9ef8f21	-0.00045692272
60	0x3bae1b21	0.0053132926
61	0xbc160805	-0.009157185
62	0x3b29a794	0.0025887238
63	0xbbb12bb4	-0.005406821
64	0xbbda2a29	-0.006657858
65	0xbb6682d5	-0.0035173197
66	0x398e62c5	0.0002715794
67	0x3a93b900	0.0011270344
68	0xba90f7c5	-0.0011060169
69	0x3c095292	0.008381503
70	0xbb5380ed	-0.003227289
71	0xbb8cbd1e	-0.0042950055
72	0xbba42bc0	-0.005010098
73	0x3c18c95f	0.009325354
74	0x3c73cb18	0.014879964
75	0xbc1306e5	-0.008973812
76	0x3b1e8d33	0.0024193048
77	0x3b0cf3af	0.0021507551
78	0x3ac44964	0.0014975485
79	0xbba1e983	-0.004941167
80	0xba8c8fc7	-0.0010724001
81	0x3affead5	0.0019524941
82	0x3b63b367	0.0034744383
83	0xbadf89a5	-0.0017054571
84	0xbb284c70	-0.0025680326
85	0x3b548146	0.0032425686
86	0xbac70755	-0.001518468
87	0x38732f0c	5.797953e-05
88	0xba254996	-0.00063052156
89	0x3af2f64c	0.0018536537
90	0xba87ee14	-0.0010370635
91	0xbc0eb54f	-0.0087102195
92	0x3b1cf350	0.0023948736
93	0x3bee159a	0.0072657587
94	0xbb6d2bdf	-0.003618948
95	0xbbf40a1d	-0.0074474947
96	0xbc14db50	-0.009085491
97	0xbb003f11	-0.001956884
98	0xbbce0be1	-0.006288037
99	0x3b5c4c9f	0.0033615006
100	0xbc701431	-0.0146532515
101	0xbbc1922d	-0.005907318
102	0xbbcaa030	-0.0061836466
103	0xbb9f6828	-0.0048647113
104	0x3b8c24a0	0.004276827
105	0x3b378fd8	0.0028009322
106	0xba5d27db	-0.000843642
107	0xba935c3b	-0.0011242697
108	0xbbe15f9b	-0.006877852
109	0x3c3dac41	0.011576713
110	0x3bee0173	0.0072633564
111	0xb990a623	-0.00027589602
112	0xbbe72875	-0.0070543834
113	0x3b6b4d29	0.0035904145
114	0x3ade97b5	0.0016982468
115	0xbaeca34f	-0.0018054041
116	0xbbc49d32	-0.0060001845
117	0xba45abe3	-0.0007540567
118	0x396bec8e	0.0002249947
119	0xba413ec2	-0.00073717174
120	0x3b76c601	0.003765464
121	0x393951cd	0.00017673448
122	0xbb7c30df	-0.0038481278
123	0xbc079f65	-0.008277749
124	0x3a4cd338	0.00078134565
125	0x3b1855cd	0.00232445
126	0xba82e740	-0.0009987131
127	0xbb2bfe92	-0.0026244265

network_body.linear_encoder.seq_layers.0.weight f4 [128, 10]
0	0xbefc75e7	-0.49308702
1	0x3e94191f	0.28925416
2	0xbe3c79f2	-0.18405893
3	0x3d120796	0.035651766
4	0xbf2d3348	-0.67656374
5	0x3e95a196	0.29224843
6	0x3da038a5	0.07823304
7	0xbe8e4c8d	-0.2779278
8	0x3e9bf574	0.30460703
9	0xbef4e7ed	-0.47833195
10	0xbed2682f	-0.4109511
11	0x3e2c3dca	0.16820446
12	0x3f0e272e	0.55528533
13	0x3f0296ef	0.51011556
14	0x3edd0337	0.43166515
15	0x3f06d008	0.5266118
16	0x3e99f49b	0.30069432
17	0x3e684048	0.22680771
18	0xbf1f0394	-0.62114835
19	0x3e96813d	0.29395476
20	0x3e072923	0.13199286
21	0x3e3617fa	0.17782584
22	0xbe012e21	-0.12615253
23	0xbeeaa53b	-0.45829186
24	0xbf2455a7	-0.64193195
25	0xbe36ba9d	-0.17844625
26	0xbec610b7	-0.38684627
27	0x3dcb4052	0.099243775
28	0x3f0cc026	0.54980695
29	0x3ed365de	0.41288656
30	0xbdf22c88	-0.118249
31	0xbcabbef6	-0.02096508
32	0x3e6a0fd9	0.22857608
33	0xbd8d95ba	-0.06913324
34	0xbe11f24e	-0.14252588
35	0x3dafac76	0.08577816
36	0x3ece27e6	0.40264815
37	0x3c74b4a7	0.014935649
38	0x3e1ec628	0.15505278
39	0x3de2eea4	0.11080673
40	0x3db63033	0.08895912
41	0xbe8b99e7	-0.27265856
42	0x3e7d6003	0.24743657
43	0x3ee06e91	0.43834355
44	0x3a3a8150	0.0007114606
45	0xbea78711	-0.32720235
46	0x3f3e8fbb	0.74438065
47	0x3e07dbc4	0.13267428
48	0xbe7f41e8	-0.24927485
49	0x3d76160f	0.06007963
50	0xbe87c6b2	-0.2651878
51	0x3e523f41	0.20531942
52	0x3f009af0	0.50236416
53	0x3f099d1f	0.5375537
54	0x3ea38604	0.31938183
55	0xbe1665ca	-0.14687267
56	0x3e2b124e	0.16706201
57	0xbd8c0b6e	-0.068381175
58	0xbf34ec06	-0.70672643
59	0x3d921656	0.071331665
60	0xbcd85b69	-0.026410775
61	0x3eb22d12	0.3480001
62	0x3e0c0f03	0.13677602
63	0x3dddf0e7	0.10836964
64	0x3db46568	0.08808404
65	0xbcf5a74d	-0.029987002
66	0xbb8e2f21	-0.0043391143
67	0xbd9df9ce	-0.07713662
68	0x3e3fca45	0.18729503
69	0xbd326ef8	-0.04356286
70	0xbedb3923	-0.4281703
71	0x3f346b39	0.7047611
72	0xbe7c5b31	-0.24644162
73	0x3dd5e399	0.104438014
74	0xbd717c54	-0.05895646
75	0xbf0f88a6	-0.56067884
76	0xbe5b6a8d	-0.21427365
77	0xbc88044e	-0.016603615
78	0xbecd0c4d	-0.40048447
79	0xbc5537aa	-0.01301376
80	0x3e96f7d4	0.29485953
81	0x3e339f82	0.17541316
82	0x3ec9901f	0.39367768
83	0xbefdd118	-0.49573588
84	0x3d71f877	0.059074845
85	0xbea6debe	-0.32591814
86	0xbe5f4956	-0.21805319
87	0x3dd6926b	0.10477146
88	0x3ef54bff	0.47909543
89	0xbdfde4bf	-0.123971455
90	0xbda2708d	-0.079316236
91	0xbc1c7f44	-0.009551827
92	0x3e21106e	0.15728924
93	0x3e863750	0.26214075
94	0xbe484d67	-0.19560777
95	0xbece96ef	-0.40349528
96	0x3e944087	0.2895548
97	0xbdaf40a3	-0.0855725
98	0xbec14491	-0.37747625
99	0x3e64422d	0.22290869
100	0xbf04b6e8	-0.5184159
101	0xbe807c9e	-0.25095075
102	0x3cb3698b	0.021900913
103	0xbdf51455	-0.11966769
104	0x3ec8f131	0.39246514
105	0x3b79c966	0.0038114428
106	0x3f191d9b	0.598108
107	0x3e7b19f1	0.24521615
108	0x3ed17946	0.40912837
109	0xbf0ffcf9	-0.5624538
110	0xbf307a45	-0.6893657
111	0x3cf03ebe	0.029326793
112	0xbe99a728	-0.30010343
113	0xbe699356	-0.2281011
114	0x3ef13780	0.47112656
115	0x3e45ee9c	0.19329304
116	0x3ece2750	0.40264368
117	0x3e769158	0.24078882
118	0xbc56c9f8	-0.013109677
119	0xbe8cbf28	-0.2748959
120	0xbedee338	-0.4353273
121	0xbebdd347	-0.37075254
122	0x3ea60e0f	0.324326
123	0x3e622ac2	0.22086623
124	0xbe5eb330	-0.21748042
125	0xbec94117	-0.39307472
126	0xbee163ad	-0.4402136
127	0x3c19cbe8	0.009386994
128	0x3f0c6bcc	0.54851985
129	0xbe13ce26	-0.14434108
130	0xbe59c8a7	-0.21267949
131	0x3ee413af	0.44546267
132	0xbda75e2a	-0.08172257
133	0xbe185a8a	-0.14878288
134	0xbe066f05	-0.13128288
135	0xbd530cf3	-0.05152602
136	0xbc00a371	-0.0078514675
137	0x3dcde56c	0.100535244
138	0xbcb59663	-0.022166437
139	0x3eb655e3	0.356124
140	0x3eae6289	0.3405955
141	0xbba07a87	-0.004897419
142	0x3ee4ed4c	0.44712293
143	0x3d527389	0.051379714
144	0xbdcf9d1f	-0.1013739
145	0xbba78c86	-0.0051131872
146	0x3e9d569d	0.30730143
147	0x3cd85032	0.026405428
148	0x3ebb8c5e	0.3663053
149	0x3d1d60ff	0.03842258
150	0xbdc55a49	-0.09636361
151	0x3ee23ade	0.44185537
152	0x3daf53f7	0.08560937
153	0xbe29bb3e	-0.16575333
154	0xbe172cba	-0.14763156
155	0x3adfd8e3	0.0017078187
156	0xbcfa69ab	-0.030567965
157	0x3e8f6abd	0.28011122
158	0xbecd53c7	-0.4010298
159	0xbec2a6b4	-0.3801781
160	0xbedd87a7	-0.43267557
161	0x3e3c5632	0.18392256
162	0x3e32b5ff	0.17452239
163	0x3db991af	0.0906099
164	0xbe78f187	-0.24310885
165	0x3eef7259	0.46766928
166	0xbf0ec1c3	-0.55764407
167	0x3ed5c6e4	0.41753304
168	0xbe38b9f2	-0.18039683
169	0xbf1653ef	-0.5872182
170	0xbedb300c	-0.42810094
171	0x3ddf5c8f	0.10906326
172	0x3f43c097	0.76465744
173	0xbe88d3e3	-0.26724157
174	0x3d5a569a	0.053305246
175	0x3f0b0306	0.5430149
176	0xbe6e9fcf	-0.2330315
177	0xbf0b81ea	-0.5449511
178	0xbeac7957	-0.33686325
179	0x3eab6c0c	0.3348087
180	0xbeb6691c	-0.35627067
181	0x3e99f65b	0.30070767
182	0x3e833882	0.2562905
183	0xbdcc5275	-0.09976665
184	0x3ee0e31e	0.43923277
185	0xbed988c2	-0.4248715
186	0x3eb2e162	0.34937578
187	0x3eef4add	0.46736804
188	0x3ed41ca3	0.41428098
189	0x3d9e829b	0.07739755
190	0x3e96d8b7	0.29462215
191	0x3dd51a54	0.10405412
192	0xbe0c405f	-0.1369643
193	0x3d91003b	0.07080122
194	0x3e22ecad	0.15910597
195	0x3ceb3042	0.028709535
196	0xbe970421	-0.29495338
197	0xbeee0c5b	-0.464938
198	0xbe8f0406	-0.27932757
199	0x3e505f3f	0.20348834
200	0xbe4c3b59	-0.19944514
201	0xbe419c5a	-0.189073
202	0x3ed12942	0.4085179
203	0xbe00e4c9	-0.12587275
204	0x3e6c211b	0.23059504
205	0x3dfd595c	0.123705596
206	0x3eb09e2f	0.34495685
207	0xbe5ca5dc	-0.21547645
208	0x3e938f02	0.28820044
209	0x3f15525c	0.58328795
210	0xbd4caead	-0.04997127
211	0xbef36a9e	-0.4754228
212	0xbef75b5e	-0.48311895
213	0xbed95a86	-0.42451876
214	0x3f08ea33	0.5348236
215	0xbecbf58f	-0.39835784
216	0x3e91490e	0.2837605
217	0x3d9831a1	0.07431341
218	0xbd6a9d75	-0.05727907
219	0xbf058d66	-0.5216888
220	0x3c16bc89	0.009200224
221	0x3ebc4a24	0.36775315
222	0x3e2438ee	0.16037342
223	0xbd69a989	-0.057046447
224	0xbe12f9ae	-0.14353058
225	0x3ec9d7c0	0.39422417
226	0xbce51582	-0.027964357
227	0x3dbff30c	0.093725294
228	0xbf2c573f	-0.67320627
229	0x3f00043c	0.5000646
230	0xbd493109	-0.04911903
231	0xbdc81eb2	-0.0977148
232	0xbea6626c	-0.32496965
233	0xbc7fc185	-0.0156101035
234	0xbe2e7d6f	-0.17040037
235	0xbe45524a	-0.19269672
236	0xbe347555	-0.17622884
237	0xbe89942f	-0.26870868
238	0x3b699313	0.0035640642
239	0xbe0832ee	-0.13300678
240	0x3f6184ec	0.8809345
241	0x3e048c9a	0.1294426
242	0x3dc737df	0.097274534
243	0x3e60350c	0.21895236
244	0x3ea21ff4	0.31665003
245	0x3e14da8f	0.14536498
246	0xbd92d0ff	-0.07168769
247	0xbe355cb8	-0.1771115
248	0x3e89c6b2	0.26909405
249	0x3ec4193e	0.38300508
250	0x3f6e2948	0.9303174
251	0xbc5b5d6e	-0.013388975
252	0xbf3497a5	-0.7054389
253	0x3ea04190	0.3130002
254	0xbe9e7043	-0.30945024
255	0x3e0b0587	0.13576327

network_body.linear_encoder.seq_layers.2.bias f4 [128]
0	0x3b185fb3	0.00232504
1	0xbbae3bb7	-0.005317177
2	0xbbd8107b	-0.0065937615
3	0x3b67a938	0.0035348665
4	0xba8641ea	-0.0010243033
5	0xbbd2d53c	-0.006434111
6	0x3b94aac7	0.00453696
7	0xbb26efd8	-0.0025472548
8	0xbb72ae1e	-0.0037030051
9	0xba53a7cc	-0.0008074015
10	0x3a118bf2	0.00055521645
11	0xbc129313	-0.008946198
12	0xbbb56cbf	-0.005536645
13	0xba31c96f	-0.000678203
14	0xbbe52dc1	-0.0069939797
15	0x3bb57c17	0.0055384743
16	0x3c0124c5	0.007882302
17	0xbbbcfdfd	-0.0057675825
18	0x3bb33827	0.0054693404
19	0xbc2c718c	-0.010525119
20	0x3941e954	0.00018492836
21	0xbc0115dc	-0.007878747
22	0xbb972256	-0.0046122475
23	0xbbd8a0d7	-0.0066109705
24	0xba89bc4c	-0.0010508387
25	0x3bacc4a9	0.005272467
26	0x39a0bdee	0.00030659087
27	0x3b87f7b3	0.004149401
28	0xb9e8ef28	-0.00044428674
29	0xbb2df898	-0.0026545878
30	0xbbe7b793	-0.0070714443
31	0xbb55963d	-0.003259077
32	0x3b1bb6d6	0.0023760102
33	0xbbaacee9	-0.005212654
34	0x3b92a2e7	0.004474986
35	0xbb8ea6a7	-0.0043533626
36	0x39bf7eab	0.00036524734
37	0x3b8b3306	0.004248026
38	0x3b143254	0.0022613006
39	0x3c527e1b	0.012847449
40	0x39ec1805	0.00045031324
41	0xb79f2007	-1.8969191e-05
42	0xba4619bd	-0.0007556936
43	0xbbb16a18	-0.0054142587
44	0xba6864cf	-0.00088651193
45	0x3b4519f3	0.0030075281
46	0xbafe3ea8	-0.0019397335
47	0xbb823ef9	-0.003974792
48	0xbbe5f894	-0.007018158
49	0xb989ad48	-0.0002625978
50	0xb9bc71a9	-0.00035942838
51	0xbaad603d	-0.0013227534
52	0x3b544dce	0.0032395008
53	0xb818a3ac	-3.6392055e-05
54	0xbad0dbf5	-0.0015934693
55	0x3a411416	0.0007365359
56	0xba3a9935	-0.00071181665
57	0xbaf1a14d	-0.0018434912
58	0x3c385d13	0.011252659
59	0xbb919cf5	-0.0044437596
60	0x3be7aff9	0.007070538
61	0xba98c6c1	-0.0011655913
62	0xbc040b6b	-0.008059363
63	0xbadfd1bb	-0.0017076054
64	0x3aeb5081	0.0017953069
65	0xbba74a66	-0.0051053045
66	0xb97a9c0a	-0.00023899987
67	0xbbf12de5	-0.0073602074
68	0xbb89b0cf	-0.0042019854
69	0x3b5fe0e6	0.003416115
70	0xbb0d5f22	-0.0021571596
71	0x3bd806a3	0.006592588
72	0xbb8dff26	-0.0043333946
73	0x3a09c1c1	0.0005255007
74	0x3c01f696	0.007932326
75	0xbb4ba885	-0.0031075787
76	0x3a8ded41	0.0010828153
77	0x3c89ac12	0.016805682
78	0xba563970	-0.0008172011
79	0x3aa6f86e	0.0012738833
80	0x39eb9061	0.00044930264
81	0x3b1117f1	0.0022139514
82	0x3b9bb77c	0.0047520977
83	0xbaf7b45d	-0.0018898357
84	0xbb90500c	-0.0044040736
85	0x3b724d7b	0.0036972451
86	0xbb8e142f	-0.004335902
87	0xbb99f3be	-0.004698246
88	0x3ac7a1a3	0.0015230667
89	0xbbf41106	-0.0074483184
90	0x389eb026	7.566837e-05
91	0x3a83d003	0.0010056499
92	0xbb0baa7e	-0.0021311338
93	0xbb982670	-0.004643254
94	0xbb57cf45	-0.0032929939
95	0xba820507	-0.0009919711
96	0x3c101e10	0.00879623
97	0xbb8fa019	-0.004383099
98	0xbb6dbadb	-0.0036274705
99	0x3b2cf149	0.0026388934
100	0xba4e4f38	-0.0007870081
101	0xbb88fe10	-0.0041806772
102	0x3ba0f7d4	0.004912356
103	0x39e418e1	0.00043506085
104	0xbb18f208	-0.0023337621
105	0xbaefc8cf	-0.0018294099
106	0x3bf80e57	0.007570069
107	0x3a8207a2	0.0009920488
108	0x3bca8f7a	0.0061816545
109	0xbbca4a7e	-0.006173431
110	0xbb84a694	-0.004048178
111	0xbbf04b4b	-0.0073331944
112	0x3ba4e11a	0.005031717
113	0x3adcfe2d	0.0016860418
114	0x3b821c96	0.003970693
115	0xbb993d91	-0.0046765287
116	0xbb601eca	-0.003419804
117	0xbaceefb8	-0.0015787994
118	0xbbe9cc09	-0.0071349186
119	0x3bbd1aab	0.0057710013
120	0xbb63f37a	-0.0034782575
121	0xbbdad7b8	-0.0066785477
122	0xbaaecce1	-0.0013336205
123	0xbb5c2fea	-0.0033597895
124	0x3b80d0f2	0.003931158
125	0xbab2b1b6	-0.0013633284
126	0xbb91add6	-0.0044457717
127	0xb996ea53	-0.00028784815

network_body.linear_encoder.seq_layers.2.weight f4 [128, 128]
0	0x3cc15e87	0.023604644
1	0x3de75681	0.11295796
2	0xbddff2f0	-0.109350085
3	0xbdb34e96	-0.087552235
4	0xbe8aa238	-0.27076888
5	0x3d746799	0.05966911
6	0x3d6e104b	0.058121007
7	0xbe144261	-0.14478447
8	0xbbbc7c49	-0.0057521206
9	0x3d8f8cc3	0.0700927
10	0x3cb5b496	0.022180837
11	0xbc1703ec	-0.009217244
12	0x3c32ad03	0.010905507
13	0xbd11cfa7	-0.035598423
14	0x3bffec32	0.007810139
15	0x3e8ce458	0.27517962
16	0xbcdf31c8	-0.027245417
17	0x3b8e41eb	0.004341354
18	0xbd1a6ecc	-0.03770332
19	0x3d01faf9	0.031733487
20	0x3cbf642b	0.023363193
21	0x3cb9b9e3	0.022671646
22	0x3e2d98eb	0.16952865
23	0x3e2db90f	0.16965126
24	0xbd984171	-0.07434357
25	0x3a5cb591	0.00084193895
26	0xbc982baa	-0.018575508
27	0xbd63f409	-0.055652652
28	0xbd448dfe	-0.047986977
29	0xbd75142d	-0.059833694
30	0x3dd5e0c0	0.10443258
31	0x3d5369c1	0.051614527
32	0xbdd02196	-0.10162656
33	0xbdca32a1	-0.09872938
34	0xbd15bdf6	-0.036558114
35	0x39185ab4	0.00014529639
36	0xbd4a4630	-0.049383342
37	0xbdab2818	-0.08357257
38	0xbcc8ba9b	-0.024503043
39	0x3e19d44e	0.15022394
40	0xbc7c3828	-0.015394248
41	0x3c31808f	0.010833873
42	0x3c89eb20	0.01683575
43	0x3cfc91a2	0.030831162
44	0x3db92b82	0.090415016
45	0x3d8e416d	0.06946073
46	0x3abb1e8c	0.0014276071
47	0xbc2ad1e7	-0.010426021
48	0xbd564589	-0.052312408
49	0x3d2f88ea	0.04285518
50	0x3d97acac	0.074059814
51	0xbddf194f	-0.10893499
52	0xbbd1ddec	-0.006404629
53	0x3e15eb6f	0.14640592
54	0x3e56303b	0.20916836
55	0xbca2b7cc	-0.019863032
56	0x3cd4968b	0.02595069
57	0xbc4bd60b	-0.012441169
58	0xbc236e3a	-0.0099750105
59	0x3cab4fd8	0.020912096
60	0xbe576fab	-0.21038692
61	0xbe294246	-0.16529188
62	0xbc91479d	-0.017734343
63	0x3ddb972f	0.10722195
64	0xbdff9556	-0.124796554
65	0x3cd5c345	0.026094088
66	0xbbb6b07e	-0.0055752387
67	0xbc9d1478	-0.0191748
68	0x3c96eb05	0.018422613
69	0xbd4f0a0a	-0.050546683
70	0x3ded8760	0.11598086
71	0xbde0d28f	-0.10977661
72	0x3d097b55	0.033564884
73	0xbe3bb9b4	-0.18332559
74	0xbba75721	-0.005106822
75	0xbd9f2ce3	-0.07772233
76	0x3bec5cdc	0.007213218
77	0xbd8071ce	-0.062717065
78	0x3d227bd0	0.039668858
79	0x3d60ce29	0.05488411
80	0x3dfef983	0.12449934
81	0xbc1ab6b5	-0.009442975
82	0xbd5e8ed4	-0.05433543
83	0x3c6955aa	0.014241615
84	0x3ce4736b	0.027887067
85	0x3bab7e19	0.005233538
86	0x3c98c52d	0.018648708
87	0x3e201053	0.15631227
88	0xbda699e1	-0.08134819
89	0x3d72fd3f	0.059323546
90	0xbcbd5fdc	-0.023116998
91	0x3e204b3b	0.15653698
92	0xbe0689cf	-0.13138507
93	0x3d51c6f3	0.051215123
94	0x3cf40e68	0.029792026
95	0xbcf1513f	-0.029457686
96	0x3ba23581	0.004950226
97	0x3d613039	0.05497763
98	0x3e0aedd2	0.13567284
99	0xbdcd26de	-0.10017179
100	0x3dcde045	0.10052542
101	0xbca91280	-0.020638704
102	0x3c23cd58	0.009997688
103	0x3dd3e8ab	0.10347112
104	0x3c3cc02b	0.011520426
105	0x3df0d462	0.11759259
106	0x3d225e3c	0.03964065
107	0x3d1db3c2	0.03850151
108	0xbe683b15	-0.22678788
109	0xbdbbedb2	-0.09176196
110	0xbdeaba63	-0.11461332
111	0x3d2913bd	0.04127859
112	0xbdcf0033	-0.1010746
113	0x3c953eed	0.018218482
114	0x3c6b2b80	0.014353633
115	0xbd834fae	-0.06411682
116	0x3df55c68	0.11980516
117	0xbc2a6147	-0.010399169
118	0x3c8c37b5	0.017116407
119	0xbcabe984	-0.020985372
120	0xbda321e7	-0.07965451
121	0x3d843270	0.06454933
122	0xbc4da293	-0.012550968
123	0x3ccabdf8	0.024748787
124	0xbdbc9bed	-0.09209428
125	0x3d93bc63	0.07213666
126	0x3ca31f9e	0.019912537
127	0x3d05e21d	0.03268634
128	0x3ac79d2c	0.0015229336
129	0xbd832285	-0.064030685
130	0x3bbce4c7	0.005764577
131	0xbd92675d	-0.07148621
132	0xbaad0ac1	-0.0013202057
133	0x3df98384	0.12183288
134	0x3df9d98d	0.12199698
135	0x3d98545f	0.074379675
136	0xbcd659d1	-0.026165875
137	0xbcbbbb08	-0.022916332
138	0xbd736e11	-0.05943114
139	0x3dfa9ff9	0.122375436
140	0x3dfab780	0.12242031
141	0xbc5bf83e	-0.013425885
142	0x3be32a1f	0.0069325115
143	0xbafe6f3f	-0.0019411816
144	0xbdabb311	-0.083837636
145	0x3dbbe10c	0.09173784
146	0x3e09cd5f	0.13457249
147	0x3d4d8d7d	0.050183762
148	0xbb067d86	-0.0020521595
149	0xbdbdb034	-0.09262124
150	0x3cde5468	0.027139857
151	0x3cc30b13	0.023808992
152	0x3c74e4d9	0.01494714
153	0xbe1960b7	-0.149783
154	0x3d275aed	0.040858198
155	0x3e1bdfd1	0.15222098
156	0x3e308367	0.17237626
157	0xbcbfe777	-0.0234258
158	0xbbf9da4c	-0.0076249
159	0x3d31fd5e	0.04345452
160	0x3c7f1243	0.015568319
161	0xbd754c55	-0.05988725
162	0x3dd73323	0.105078004
163	0x3d6e43e7	0.058170225
164	0x3d27e481	0.040989403
165	0xbdfa2476	-0.122139856
166	0xbdcc7d90	-0.09984887
167	0x3d5fb3f3	0.054614972
168	0x3dce6d9d	0.10079501
169	0x3dd1c95c	0.102434844
170	0xbe5e473a	-0.21706858
171	0x3d33136b	0.04371969
172	0x3da87336	0.082251
173	0xbe4fed8b	-0.20305459
174	0xbd3fa4f5	-0.046788175
175	0x3d8433e0	0.06455207
176	0xbcc5c464	-0.024141498
177	0xbd04260e	-0.032262854
178	0xbe74e113	-0.23913984
179	0xbdaef89d	-0.08543513
180	0xbc05dc1e	-0.008170156
181	0xbe47377f	-0.19454764
182	0xbdd880c9	-0.10571439
183	0x3cfdfc1e	0.031004008
184	0xbcc4e649	-0.02403559
185	0x3d951462	0.07279278
186	0x3dbc408f	0.09192001
187	0xbe727105	-0.23675926
188	0xbbc101bd	-0.0058901
189	0xbd99616b	-0.07489284
190	0x3b61f117	0.0034475976
191	0xbba4b8ea	-0.0050269263
192	0xbc10a119	-0.008827471
193	0x3d5dab59	0.054118488
194	0x3c893c69	0.016752439
195	0xbc297ef2	-0.0103452075
196	0x3bbebf0d	0.005821115
197	0x3d7e6289	0.06210569
198	0x3d92f60d	0.07175837
199	0xbd6a3e4e	-0.057188325
200	0x3dda8fb4	0.106719404
201	0x3d2947b7	0.04132816
202	0xbd3183a2	-0.043338425
203	0xbd0326a4	-0.032019272
204	0x3bc15b9f	0.0059008147
205	0xbd7250cf	-0.059159096
206	0x3d626ed5	0.05528148
207	0xbd3673c2	-0.04454399
208	0xbbc05023	-0.005868928
209	0x3d505754	0.050864533
210	0xbdd6ccdf	-0.10488295
211	0xbd8616ad	-0.06547294
212	0x3c8132e5	0.015771339
213	0xbd4cf9fd	-0.050043095
214	0xbc5da439	-0.013527923
215	0xbd8291b5	-0.06375448
216	0x3cb1f9c2	0.02172554
217	0xbdb63b7f	-0.08898067
218	0x3d3bfeff	0.04589748
219	0xbcdbab72	-0.02681515
220	0xbd59e9d7	-0.053201523
221	0x3cea76ea	0.028621156
222	0xbd5fe9f4	-0.054666474
223	0x3b6a026a	0.0035707005
224	0xbdbb8dca	-0.091579035
225	0x3ca89222	0.020577494
226	0x3c966c31	0.018362137
227	0xbe29c17f	-0.16577719
228	0x3e07aefb	0.13250344
229	0x3e32aafd	0.1744804
230	0xbd7f8219	-0.06237993
231	0x3e1a37a2	0.15060285
232	0xbd2e918f	-0.042619284
233	0x3d7bb21d	0.06144916
234	0xbceddbdb	-0.0290355
235	0x3d63e3d1	0.055637185
236	0xbd8aea26	-0.067829415
237	0xbd982847	-0.07429557
238	0x3da5dfa2	0.08099295
239	0xbe063da7	-0.13109456
240	0xbe19bce6	-0.15013465
241	0xbd8cd520	-0.06876588
242	0xbe06e2f8	-0.13172519
243	0xbd9d3cd3	-0.07677617
244	0xbe56982e	-0.2095649
245	0xbce751eb	-0.028237304
246	0xbe1bbbd5	-0.15208371
247	0xbe20bfb0	-0.15698123
248	0x3da4657b	0.08027168
249	0xbd0c84b1	-0.034306232
250	0xbc47b592	-0.012189286
251	0xbd33ec25	-0.043926377
252	0x3d6e5f29	0.05819622
253	0xbe6eae8e	-0.23308775
254	0xbd561609	-0.052267108
255	0x3dd4807a	0.103760675
