results/ppo/MoveToGoal/checkpoint.pt (torch, 168215 bytes, 13 tensors)

network_body.linear_encoder.seq_layers.0.weight f4 [128, 22]
-0.10908914 0.22489955 -0.16310593 -0.09610901 0.058604397 -0.1688432 -0.31868416 0.050953526
-0.06880476 -0.32713398 -0.036343556 -0.041308813 0.32035178 0.07854922 -0.031463135 0.10447391
-0.14592664 0.5088362 0.10402382 0.043881133 0.32090566 0.031950325 0.031014413 -0.4355095
0.1238131 -0.0551141 -0.018409515 0.081793256 0.6767366 0.060534794 -0.11552339 -0.023525838
0.051186565 -0.2258901 0.39131144 -0.14457409 -0.091273196 -0.20495075 -0.15640597 -0.19813386
0.21817893 -0.2511085 0.17868364 -0.10193574 0.083626084 -0.10158422 -0.3096775 -0.07349483
-0.10170422 -0.017696239 -0.17271633 -0.1010159 0.27177164 0.4545913 -0.3379837 -0.22719876
-0.10187783 0.14382516 0.27914673 0.14952485 0.077379204 -0.005994052 -0.04271464 0.58493805
-0.404024 -0.17326449 -0.2299995 -0.17030703 0.15165691 0.13368487 0.16772278 -0.35328823
-0.1355195 0.29975203 0.081231676 -0.2998605 0.039939497 -0.048021764 0.117637195 0.05357706
0.05519852 0.017407738 -0.068342604 -0.10231892 0.14060108 -0.1949024 0.07990141 0.09125865
0.11097241 -0.27830878 0.18353294 0.08621633 -0.084371984 0.034639724 0.09042645 0.10083594
0.092098475 0.46737567 0.06675499 -0.12230857 -0.07072799 0.18178736 -0.27630398 -0.3831028
0.1024079 0.08885052 -0.22144672 0.1974908 -0.39765283 -0.15549713 0.07309571 0.01372179
-0.16682382 0.40918696 0.055860206 -0.25069422 -0.23797895 0.10146207 0.06486458 -0.1433103
0.024484519 -0.033469602 -0.14889689 -0.2088232 -0.24428432 -0.15259042 -0.019225594 0.025120785
-0.08100585 -0.036134634 0.26584828 -0.087235935 -0.3624335 0.32360053 0.21569903 -0.10538306
-0.10013598 0.06055501 0.02327891 0.19049953 -0.15639505 0.119005784 0.18734692 0.047724627
-0.052164175 -0.33482787 0.0122175375 -0.22392021 -0.2471586 -0.10689204 0.0901005 0.050686866
-0.23038003 -0.07658376 -0.1007825 0.04604143 -0.25644717 -0.06788757 -0.06759383 0.42602322
0.5653662 -0.12535396 -0.100870036 -0.5776354 0.16123712 0.2953232 -0.050201837 -0.10799417
0.05866673 0.23508774 -0.084623165 0.10053019 0.0134292245 -0.34421286 -0.08358762 0.071280494
0.25185478 -0.104130566 -0.11199796 0.11503635 -0.16887903 0.23179303 0.28483117 -0.16808295
-0.18728043 -0.081294216 -0.10697408 -0.08444762 -0.11918152 -0.19792397 -0.28557947 0.024682298
0.06622436 0.08635215 -0.24100424 -0.21959673 -0.35608897 -0.044857148 -0.25202903 -0.115095235
-0.28382453 -0.122893184 -0.28233495 0.12467746 -0.020769533 -0.17364618 0.18180734 -0.3318396
0.46733078 0.006189759 -0.21336068 0.1257038 0.049126714 -0.037331384 0.054810394 -0.01519882
-0.19849832 -0.094315425 0.03249773 0.13797657 -0.11731667 -0.19245024 -0.28873137 0.199629
0.06958284 -0.25401908 0.26945776 0.08455196 -0.24502777 -0.39330864 0.13110572 -0.24426603
-0.17744574 -0.1395735 0.25800654 -0.062598705 -0.0052718194 -0.35492572 0.032023408 0.53061724
0.038568843 -0.13539487 0.055919617 -0.17972347 0.49013346 0.3030232 -0.21510111 0.39274985
0.15567411 0.044770036 -0.08507574 0.28735816 -0.21686213 -0.010108712 0.00038716235 -0.29801047
00000000: 216a dfbd 114c 663e 3e05 27be cdd4 c4bd
00000010: 2a0b 703d 3be5 2cbe 922a a3be a5b4 503d
00000020: 83e9 8cbd 1b7e a7be fbdc 14bd 6e33 29bd
00000030: 2605 a43e 6ade a03d 7ddf 00bd 6bf6 d53d
00000040: cb6d 15be 1743 023f 710a d53d b4bc 333d
00000050: bf4d a43e 58de 023d f011 fe3c 1afb debe
00000060: b991 fd3d 53bf 61bd 8dcf 96bc 3983 a73d
00000070: 9c3e 2d3f 55f3 773d 8797 ecbd 42b9 c0bc
00000080: 01a9 513d bc4f 67be f959 c83e 3b0b 14be
00000090: 71ed babd 9cde 51be e328 20be 9ae3 4abe
000000a0: 4c6a 5f3e 4b91 80be d8f8 363e afc3 d0bd
000000b0: 2744 ab3d 630b d0bd 0d8e 9ebe 7584 96bd
000000c0: 4d4a d0bd b4f7 90bc 8ddc 30be 6de1 cebd
000000d0: a725 8b3e 31c0 e83e 330c adbe cba6 68be
000000e0: 53a5 d0bd e746 133e 52ec 8e3e 0b1d 193e
000000f0: fd78 9e3d c169 c4bb 8cf5 2ebd 80be 153f
00000100: 3cdc cebe 3f6c 31be fd84 6bbe f764 2ebe
00000110: f34b 1b3e b0e4 083e 85bf 2b3e 32e2 b4be
00000120: a0c5 0abe 1979 993e cb5c a63d 5187 99be
00000130: 9997 233d 78b2 44bd c5eb f03d 9f73 5b3d
00000140: d817 623d ac9a 8e3c 35f7 8bbd 958c d1bd
00000150: bbf9 0f3e 7f94 47be 5aa3 a33d d1e5 ba3d
00000160: 8145 e33d 7d7e 8ebe 0ff0 3b3e 3092 b03d
00000170: 38cb acbd 62e2 0d3d 8131 b93d 1383 ce3d
00000180: 209e bc3d dd4b ef3e d7b6 883d ea7c fabd
00000190: d6d9 90bd 7726 3a3e b777 8dbe 0d26 c4be
000001a0: 3cbb d13d 43f7 b53d eec2 62be 073b 4a3e
000001b0: 2799 cbbe a43a 1fbe 34b3 953d 5cd1 603c
000001c0: ddd3 2abe f480 d13e accd 643d fe5a 80be
000001d0: c1b0 73be 59cb cf3d b9d7 843d efbf 12be
000001e0: c293 c83c 6c17 09bd 6d78 18be c0d5 55be
000001f0: ab25 7abe aa40 1cbe fe7e 9dbc 1bca cd3c
00000200: 65e6 a5bd e901 14bd 441d 883e c1a8 b2bd
00000210: e290 b9be f8ae a53e 35e0 5c3e 13d3 d7bd
00000220: 1814 cdbd 8808 783d 6ab3 be3c 4f12 433e
00000230: 0626 20be 4eb9 f33d dfd7 3f3e e67a 433d
00000240: 1aaa 55bd 8f6e abbe 112c 483c 574b 65be
00000250: 2517 7dbe 37ea dabd 9c86 b83d 089d 4f3d
00000260: bee8 6bbe f2d7 9cbd 0e67 cebd f095 3c3d
00000270: 0b4d 83be a308 8bbd a26e 8abd b71f da3e
00000280: d7bb 103f ca5c 00be f394 cebd eadf 13bf
00000290: 581b 253e 9a34 973e 71a0 4dbd 0c2c ddbd
000002a0: 864c 703d d7ba 703e e94e adbd c6e2 cd3d
000002b0: 4006 5c3c ab3c b0be fc2f abbd 82fb 913d
000002c0: 1cf3 803e 6842 d5bd 305f e5bd 2e98 eb3d
000002d0: a0ee 2cbe 275b 6d3e 64d5 913e f01d 2cbe
000002e0: 71c6 3fbe 957d a6bd 3a15 dbbd e0f2 acbd
000002f0: 7115 f4bd 95ac 4abe 7937 92be 8832 ca3c
00000300: a3a0 873d 65d9 b03d d1c9 76be f7dd 60be
00000310: 4b51 b6be 21bc 37bd f309 81be 0db7 ebbd
00000320: 7351 91be 6caf fbbd 358e 90be e556 ff3d
00000330: de24 aabc 4ed0 31be b42b 3a3e e1e6 a9be
00000340: fb45 ef3e 76d3 ca3b 397b 5abe 7fb8 003e
00000350: 1839 493d cbe8 18bd dd80 603d 7904 79bc
00000360: 2543 4bbe 7228 c1bd 571c 053d bb49 0d3e
00000370: b943 f0bd ad11 45be 99d4 93be 8b6b 4c3e
00000380: 7381 8e3d ca0e 82be 5ef6 893e 9429 ad3d
00000390: 8fe8 7abe c05f c9be 9440 063e e020 7abe
000003a0: 56b4 35be 5bec 0ebe 6f19 843e c033 80bd
000003b0: 3abf acbb d3b8 b5be fa2a 033d 88d6 073f
000003c0: 5dfa 1d3d f4a4 0abe f80b 653d 6e09 38be
000003d0: c6f2 fa3e db25 9b3e 7743 5cbe 8216 c93e
000003e0: 0969 1f3e c960 373d 313c aebd 9c20 933e
000003f0: 1b11 5ebe 039f 25bc 0dfc ca39 d494 98be

network_body.linear_encoder.seq_layers.0.bias f4 [128]
0.0 0.0 0.0 0.0 0.0 0.0 0.0 0.0
0.0 0.0 0.0 0.0 0.0 0.0 0.0 0.0
0.0 0.0 0.0 0.0 0.0 0.0 0.0 0.0
0.0 0.0 0.0 0.0 0.0 0.0 0.0 0.0
0.0 0.0 0.0 0.0 0.0 0.0 0.0 0.0
0.0 0.0 0.0 0.0 0.0 0.0 0.0 0.0
0.0 0.0 0.0 0.0 0.0 0.0 0.0 0.0
0.0 0.0 0.0 0.0 0.0 0.0 0.0 0.0
0.0 0.0 0.0 0.0 0.0 0.0 0.0 0.0
0.0 0.0 0.0 0.0 0.0 0.0 0.0 0.0
0.0 0.0 0.0 0.0 0.0 0.0 0.0 0.0
0.0 0.0 0.0 0.0 0.0 0.0 0.0 0.0
0.0 0.0 0.0 0.0 0.0 0.0 0.0 0.0
0.0 0.0 0.0 0.0 0.0 0.0 0.0 0.0
0.0 0.0 0.0 0.0 0.0 0.0 0.0 0.0
0.0 0.0 0.0 0.0 0.0 0.0 0.0 0.0
00000000: 0000 0000 0000 0000 0000 0000 0000 0000
00000010: 0000 0000 0000 0000 0000 0000 0000 0000
00000020: 0000 0000 0000 0000 0000 0000 0000 0000
00000030: 0000 0000 0000 0000 0000 0000 0000 0000
00000040: 0000 0000 0000 0000 0000 0000 0000 0000
00000050: 0000 0000 0000 0000 0000 0000 0000 0000
00000060: 0000 0000 0000 0000 0000 0000 0000 0000
00000070: 0000 0000 0000 0000 0000 0000 0000 0000
00000080: 0000 0000 0000 0000 0000 0000 0000 0000
00000090: 0000 0000 0000 0000 0000 0000 0000 0000
000000a0: 0000 0000 0000 0000 0000 0000 0000 0000
000000b0: 0000 0000 0000 0000 0000 0000 0000 0000
000000c0: 0000 0000 0000 0000 0000 0000 0000 0000
000000d0: 0000 0000 0000 0000 0000 0000 0000 0000
000000e0: 0000 0000 0000 0000 0000 0000 0000 0000
000000f0: 0000 0000 0000 0000 0000 0000 0000 0000
00000100: 0000 0000 0000 0000 0000 0000 0000 0000
00000110: 0000 0000 0000 0000 0000 0000 0000 0000
00000120: 0000 0000 0000 0000 0000 0000 0000 0000
00000130: 0000 0000 0000 0000 0000 0000 0000 0000
00000140: 0000 0000 0000 0000 0000 0000 0000 0000
00000150: 0000 0000 0000 0000 0000 0000 0000 0000
00000160: 0000 0000 0000 0000 0000 0000 0000 0000
00000170: 0000 0000 0000 0000 0000 0000 0000 0000
00000180: 0000 0000 0000 0000 0000 0000 0000 0000
00000190: 0000 0000 0000 0000 0000 0000 0000 0000
000001a0: 0000 0000 0000 0000 0000 0000 0000 0000
000001b0: 0000 0000 0000 0000 0000 0000 0000 0000
000001c0: 0000 0000 0000 0000 0000 0000 0000 0000
000001d0: 0000 0000 0000 0000 0000 0000 0000 0000
000001e0: 0000 0000 0000 0000 0000 0000 0000 0000
000001f0: 0000 0000 0000 0000 0000 0000 0000 0000

network_body.linear_encoder.seq_layers.2.weight f4 [128, 128]
0.026578635 -0.067898415 -0.032892834 -0.059741244 0.0055562523 -0.0149993375 -0.07894305 0.08342756
0.16576119 0.095776215 0.06891654 0.14261784 -0.061362438 -0.048371915 -0.049692415 -0.032171424
0.062566444 -0.030830517 0.024753146 -0.15599686 0.07989691 -0.07438719 0.15971436 0.06415619
0.035348862 0.11929995 -0.004201046 0.042292602 0.122378945 -0.08116966 -0.030546494 -0.046767216
0.042207528 0.028958622 0.05315693 -0.029981097 0.18058236 -0.11935155 0.11264195 -0.012992522
-0.14302376 -0.21092795 0.11382289 0.030975623 0.03583135 0.023557464 -0.038387667 -0.012432972
-0.0368156 -0.08107575 -0.11383742 -0.03560003 -0.058575388 -0.0042693834 0.1910606 -0.058217715
-0.05168652 -0.08499014 -0.1328897 0.06710402 -0.013806663 -0.054054044 0.08921048 -0.032543186
-0.06433156 -0.033774346 0.08304441 0.017028088 0.14474984 0.05902121 -0.05111657 -0.056748923
0.012157274 0.07967223 0.11342819 0.1994048 -0.020517066 0.07119574 0.042932566 -0.0007296176
-0.09768172 0.058689993 -0.012177619 0.018244863 -0.035951447 -0.1292753 0.011883105 0.10996755
0.07179453 -0.027202386 0.13752119 0.05681156 0.016313154 -0.03467581 -0.047239866 0.13429214
0.1692344 0.08601099 0.05583461 0.10789149 0.046618313 -0.13445798 0.03290165 0.09669784
0.07085656 -0.09172392 -0.1623019 0.013696004 -0.069983855 0.090080746 -0.07538297 -0.031536892
0.016693795 0.018942658 -0.24191387 -0.044965804 0.011430827 -0.09127822 -0.13269992 0.06726077
-0.0821824 0.034478925 0.16605611 -0.063861154 0.16114384 -0.04965959 -0.11542977 0.06241776
-0.0058775684 0.05195762 0.034205556 -0.048987202 0.096635476 -0.08242708 0.14020564 -0.096418954
0.093440644 0.0062987376 -0.026144467 0.119235985 0.01931513 0.11317834 -0.030558769 -0.031454217
0.04684976 0.15133666 0.11286789 -0.13424939 0.13038969 -0.05493251 -0.037581906 -0.037568532
0.118417904 -0.16427353 0.21514623 -0.16635181 -0.039164033 0.07999224 0.049515367 -0.12389539
-0.052216593 0.042437665 -0.04091399 -0.07534158 -0.03138699 0.027205493 0.025222117 -0.070003025
0.11232005 -0.03739487 0.19722787 0.1578018 -0.09457545 -0.123881616 -0.069011316 -0.019144597
-0.044370927 -0.04832774 -0.016161274 0.042070318 0.005583013 0.000982182 -0.076207936 -0.119835384
0.050364878 0.26134834 -0.0011316197 0.004690087 -0.10546963 -0.12323945 0.1531354 -0.03715387
0.027982417 0.11949617 0.06401265 0.03395831 -0.06849015 0.005076745 -0.050386265 -0.02765603
-0.12393684 -0.07803283 -0.035734985 0.034013327 -0.06662823 -0.112614766 -0.055547018 -0.22279166
0.18145221 0.12190605 0.029767806 0.00854618 -0.0635522 0.08248305 0.08967196 -0.01939694
-0.023753861 -0.03480627 0.07928126 -0.006820926 -0.06837573 -0.07161619 -0.1420043 -0.03622543
0.099265866 -0.017312342 -0.01557213 0.13334432 -0.060444202 0.08798974 0.063499756 -0.10296376
0.107720286 -0.0027730055 -0.061103277 0.025651636 0.039116103 0.041028604 -0.04533796 0.00902137
-0.013767948 -0.013613587 0.040951006 -0.0037298007 -0.058651306 -0.24254465 -0.0010269469 0.06518149
-0.023438212 -0.023136541 -0.023046859 0.18563189 -0.053057797 0.007901045 0.083706655 0.1685914
00000000: 70bb d93c 530e 8bbd a3ba 06bd 3cb3 74bd
00000010: 3911 b63b c8bf 75bc e5ac a1bd 12dc aa3d
00000020: 4dbd 293e 5226 c43d 1d24 8d3d 690a 123e
00000030: 2e57 7bbd a121 46bd 468a 4bbd 2fc6 03bd
00000040: d622 803d 4890 fcbc 1cc7 ca3c a4bd 1fbe
00000050: fea0 a33d 5058 98bd 298c 233e 5264 833d
00000060: f8c9 103d 8853 f43d eea8 89bb 023b 2d3d
00000070: d0a1 fa3d 473c a6bd a43c fabc fb8e 3fbd
00000080: cde1 2c3d a23a ed3c 15bb 593d eb9a f5bc
00000090: 95ea 383e 966e f4bd d3b0 e63d 96de 54bc
000000a0: d274 12be 7ffd 57be fa1b e93d 97c0 fd3c
000000b0: e5c3 123d 95fb c03c 633c 1dbd aab3 4bbc
000000c0: f4cb 16bd 0b0b a6bd 9823 e9bd 56d1 11bd
000000d0: bfec 6fbd 2fe6 8bbb 64a5 433e b375 6ebd
000000e0: 3fb5 53bd 4f0f aebd 3d14 08be d56d 893d
000000f0: 5835 62bc c667 5dbd fcb3 b63d 014c 05bd
00000100: 44c0 83bd f856 0abd 3013 aa3d 7d7e 8b3c
00000110: 4d39 143e 39c0 713d 9c5f 51bd 8f71 68bd
00000120: 4e2f 473c 322b a33d 0a4d e83d c630 4c3e
00000130: 6813 a8bc 12cf 913d 0fda 2f3d cf43 3fba
00000140: 5b0d c8bd eb64 703d a384 47bc 4076 953c
00000150: d341 13bd bf60 04be 5bb1 423c ab36 e13d
00000160: 0309 933d 8ad7 debc 5bd2 0c3e 3db3 683d
00000170: 2aa3 853c 3908 0ebd 977e 41bd e183 093e
00000180: c84b 2d3e 8826 b03d d5b2 643d 37f6 dc3d
00000190: d8f2 3e3d 5aaf 09be e1c3 063d 8409 c63d
000001a0: 3e1d 913d c0d9 bbbd 7832 26be 3465 603c
000001b0: b253 8fbd 417c b83d 6362 9abd d42c 01bd
000001c0: 6dc1 883c a22d 9b3c 45b8 77be 102e 38bd
000001d0: 5d48 3b3c 13f0 babd 7de2 07be 04c0 893d
000001e0: 3f4f a8bd c639 0d3d 9d0a 2a3e a3c9 82bd
000001f0: e402 253e db67 4bbd 7166 ecbd c4a9 7f3d
00000200: 9e98 c0bb 83d1 543d 201b 0c3d cea6 48bd
00000210: d2e8 c53d 87cf a8bd 1192 0f3e 4d77 c5bd
00000220: cf5d bf3d a465 ce3b ec2c d6bc ff31 f43d
00000230: c33a 9e3c 0cca e73d 6256 fabc 23d6 00bd
00000240: 89e5 3f3d fff7 1a3e 4827 e73d ac78 09be
00000250: e084 053e e900 61bd 7cef 19bd 76e1 19bd
00000260: 1685 f23d 5237 28be 4b4f 5c3e 2158 2abe
00000270: 776a 20bd f9d2 a33d a0d0 4a3d debc fdbd
00000280: 11e1 55bd 1ed3 2d3d 6e95 27bd b04c 9abd
00000290: a58f 00bd 0ede de3c 9d9e ce3c bf5d 8fbd
000002a0: 0e08 e63d 5d2b 19bd 1af6 493e cc96 213e
000002b0: c6b0 c1bd a5b5 fdbd ce55 8dbd 21d5 9cbc
000002c0: 4abe 35bd 4ff3 45bd a664 84bc ed51 2c3d
000002d0: b5f1 b63b 8fbc 803a e812 9cbd 416c f5bd
000002e0: 674b 4e3d 73cf 853e db52 94ba 4daf 993b
000002f0: 7600 d8bd f764 fcbd 87cf 1c3e a82e 18bd
00000300: 623b e53c 68ba f43d 1019 833d de17 0b3d
00000310: 9044 8cbd d35a a63b d461 4ebd e68e e2bc
00000320: 99d2 fdbd adcf 9fbd d95e 12bd 8f51 0b3d
00000330: 6274 88bd 92a2 e6bd 4585 63bd 7f23 64be
00000340: 9cce 393e e1a9 f93d 9ddb f33c 4705 0c3c
00000350: a827 82bd e0ec a83d efa5 b73d 55e6 9ebc
00000360: 7597 c2bc 0591 0ebd 375e a23d 1382 dfbb
00000370: 9308 8cbd 82ab 92bd 9369 11be 1e61 14bd
00000380: e74b cb3d 9dd2 8dbc 3f22 7fbc 6a8b 083e
00000390: 5794 77bd f733 b43d 290c 823d aade d2bd
000003a0: 749c dc3d 50bb 35bb 6e47 7abd 6123 d23c
000003b0: 3538 203d 9c0d 283d 4cb4 39bd 5ece 133c
000003c0: f692 61bc 860b 5fbc 3ebc 273d ac6f 74bb
000003d0: 5a3c 70bd a05d 78be 9f9a 86ba df7d 853d
000003e0: 7e01 c0bc d888 bdbc c4cc bcbc 4916 3e3e
000003f0: 2253 59bd 6273 013c 656e ab3d 39a3 2c3e

network_body.linear_encoder.seq_layers.2.bias f4 [128]
0.0 0.0 0.0 0.0 0.0 0.0 0.0 0.0
0.0 0.0 0.0 0.0 0.0 0.0 0.0 0.0
0.0 0.0 0.0 0.0 0.0 0.0 0.0 0.0
0.0 0.0 0.0 0.0 0.0 0.0 0.0 0.0
0.0 0.0 0.0 0.0 0.0 0.0 0.0 0.0
0.0 0.0 0.0 0.0 0.0 0.0 0.0 0.0
0.0 0.0 0.0 0.0 0.0 0.0 0.0 0.0
0.0 0.0 0.0 0.0 0.0 0.0 0.0 0.0
0.0 0.0 0.0 0.0 0.0 0.0 0.0 0.0
0.0 0.0 0.0 0.0 0.0 0.0 0.0 0.0
0.0 0.0 0.0 0.0 0.0 0.0 0.0 0.0
0.0 0.0 0.0 0.0 0.0 0.0 0.0 0.0
0.0 0.0 0.0 0.0 0.0 0.0 0.0 0.0
0.0 0.0 0.0 0.0 0.0 0.0 0.0 0.0
0.0 0.0 0.0 0.0 0.0 0.0 0.0 0.0
0.0 0.0 0.0 0.0 0.0 0.0 0.0 0.0
00000000: 0000 0000 0000 0000 0000 0000 0000 0000
00000010: 0000 0000 0000 0000 0000 0000 0000 0000
00000020: 0000 0000 0000 0000 0000 0000 0000 0000
00000030: 0000 0000 0000 0000 0000 0000 0000 0000
00000040: 0000 0000 0000 0000 0000 0000 0000 0000
00000050: 0000 0000 0000 0000 0000 0000 0000 0000
00000060: 0000 0000 0000 0000 0000 0000 0000 0000
00000070: 0000 0000 0000 0000 0000 0000 0000 0000
00000080: 0000 0000 0000 0000 0000 0000 0000 0000
00000090: 0000 0000 0000 0000 0000 0000 0000 0000
000000a0: 0000 0000 0000 0000 0000 0000 0000 0000
000000b0: 0000 0000 0000 0000 0000 0000 0000 0000
000000c0: 0000 0000 0000 0000 0000 0000 0000 0000
000000d0: 0000 0000 0000 0000 0000 0000 0000 0000
000000e0: 0000 0000 0000 0000 0000 0000 0000 0000
000000f0: 0000 0000 0000 0000 0000 0000 0000 0000
00000100: 0000 0000 0000 0000 0000 0000 0000 0000
00000110: 0000 0000 0000 0000 0000 0000 0000 0000
00000120: 0000 0000 0000 0000 0000 0000 0000 0000
00000130: 0000 0000 0000 0000 0000 0000 0000 0000
00000140: 0000 0000 0000 0000 0000 0000 0000 0000
00000150: 0000 0000 0000 0000 0000 0000 0000 0000
00000160: 0000 0000 0000 0000 0000 0000 0000 0000
00000170: 0000 0000 0000 0000 0000 0000 0000 0000
00000180: 0000 0000 0000 0000 0000 0000 0000 0000
00000190: 0000 0000 0000 0000 0000 0000 0000 0000
000001a0: 0000 0000 0000 0000 0000 0000 0000 0000
000001b0: 0000 0000 0000 0000 0000 0000 0000 0000
000001c0: 0000 0000 0000 0000 0000 0000 0000 0000
000001d0: 0000 0000 0000 0000 0000 0000 0000 0000
000001e0: 0000 0000 0000 0000 0000 0000 0000 0000
000001f0: 0000 0000 0000 0000 0000 0000 0000 0000

action_model._discrete_distribution.branches.0.weight f4 [3, 128]
-0.01444291 0.002877835 0.0008404059 -0.0040896623 0.0010634578 0.0007556993 -0.0045781233 0.008908769
-0.012155771 -0.0029539866 0.005387826 0.0021438766 0.0027893805 -0.011501529 -0.019956455 0.0030931036
0.027908776 0.0034300962 0.018520687 0.008254795 0.019230803 0.007924843 -0.0075568887 -0.019423863
0.000949956 0.0033774772 0.0173125 0.00086426054 -0.012876299 -0.0020386223 0.012548474 -0.0050867824
0.0064992653 -0.0039612306 -0.011482065 0.0072357925 -0.001030228 0.0028435327 0.003511276 -0.0032622477
0.021384304 -0.011740121 -0.006387792 0.003402178 -0.013304715 -0.0132212145 -0.010966738 -0.003045201
-0.006790537 -0.011074542 -0.011946438 -0.007857783 0.0030835092 0.0053221947 0.0078101493 0.004294232
-0.008442822 -0.0042649475 -0.002201666 -0.00022532619 -0.013516704 -0.0055112946 -0.00031533942 0.002953313
-0.007628083 -0.006058448 0.009537353 -0.011650805 0.0010401284 0.009657616 0.003930286 0.002610146
0.0010988248 0.002170557 0.0030177583 -0.0045606215 -0.008784902 -0.0019188436 -0.0022586014 0.012216345
-0.0048498744 0.0024356127 -0.020864332 -0.020548841 -0.009192728 0.0010561094 -0.0038768668 -0.010157774
0.0075609633 -0.0016711783 -0.00747462 -0.006464846 0.00650765 -0.0076254653 -0.010884601 0.013929285
-0.0015352711 -0.0070151626 -0.0039979173 -0.006488055 -0.0032484569 0.0008670036 0.0037783016 0.003320916
-0.011327689 -0.0015333446 0.0068184794 -0.00622786 0.0018748455 -0.0053360476 0.01057513 3.2704655e-05
-0.002987285 0.0035554536 0.0013929754 0.0041239476 0.005931437 -0.020248367 -0.0111045325 -0.0054859533
-0.016205736 -0.029336462 -0.01734103 0.0022263401 -0.008510349 -0.010833065 -0.0006129983 0.00018119792
-0.0032994102 0.0108374525 -0.0009661696 0.0069787847 0.005337306 -0.0156006245 0.0010734451 0.002712907
0.008195187 -0.003942148 -0.0071260296 0.006326633 -0.008818653 -0.00085975387 -0.017733973 -0.014979631
-0.004102319 0.008056985 0.008705574 -0.0041884785 -0.00029128251 0.0032461497 0.0036216923 -0.013358717
0.009188584 0.0011706294 0.00040282504 0.0004108712 -0.008703501 0.00505924 0.0019608275 -0.006001967
-0.008657108 -0.0025760047 0.003381749 -0.0036761896 0.013408725 -0.010987655 0.01529625 0.0108334115
0.0025911583 -0.0015919928 0.0024250061 -0.0031787127 0.0067671384 -0.0046328185 -0.008612365 0.02264597
0.00206229 -0.0041254642 -0.005813093 0.0015839683 -0.0050144056 0.013231866 -0.008694283 -0.010496031
-0.0040324493 0.023774711 0.012112341 0.009743482 0.0038502093 -0.0038321975 0.0057077464 -0.00085134024
-0.008114132 -0.006601433 0.017565146 0.005108069 -0.013844936 -0.0010740445 -0.0039192047 0.01201222
0.0074643935 0.007127651 0.0038704083 -0.00038173015 -0.022199767 -0.0076515772 -0.015996149 0.002891003
-0.0056383847 -0.0002923499 0.0020888713 -0.00039067617 0.0070468495 -0.0018618562 0.013050239 -0.010204986
-0.0027968083 -0.025164975 -0.0034294047 -0.017966282 0.00031155092 0.020008272 0.005169729 -0.010340776
-0.0045323945 -0.013115822 0.0046006287 0.005834943 -0.005357725 -0.004094494 -0.011839672 0.0077037723
0.007386797 0.0032657373 -0.004528185 0.010864433 -0.00036771758 -0.0035171148 -0.002946074 0.0022579308
-0.0063054296 -0.0004956721 -0.009492869 -0.0051167323 0.0062155104 -0.014732385 0.0015916585 0.013704106
-0.011073213 -0.0038950655 0.016671976 0.0031721343 -0.011467977 -0.012274545 0.009919126 -0.00032884235
00000000: f5a1 6cbc 0f9a 3c3b af4e 5c3a 9302 86bb
00000010: b963 8b3a 1f1a 463a 1504 96bb 16f6 113c
00000020: 0029 47bc ac97 41bb 5c8c b03b 4880 0c3b
00000030: 0ace 363b e970 3cbc b87b a3bc abb5 4a3b
00000040: f2a0 e43c 77cb 603b b2b8 973c 1f3f 073c
00000050: eb89 9d3c 33d7 013c c79f f7bb cb1e 9fbc
00000060: 7806 793a aa58 5d3b f2d2 8d3c 8b8f 623a
00000070: 1df7 52bc 689a 05bb 1d98 4d3c 06af a6bb
00000080: caf7 d43b 36cd 81bb 451f 3cbc 3a1a ed3b
00000090: b708 87ba 905a 3a3b 701d 663b 6fcb 55bb
000000a0: 232e af3c a359 40bc af50 d1bb 13f7 5e3b
000000b0: 05fc 59bc cb9d 58bc d5ad 33bc ff91 47bb
000000c0: 2783 debb ff71 35bc feba 43bc eebd 00bc
000000d0: b314 4a3b ce65 ae3b 48ec ff3b a1b6 8c3b
000000e0: c353 0abc f9c0 8bbb d349 10bb 8a45 6cb9
000000f0: 2a75 5dbc 1798 b4bb 2454 a5b9 5f8c 413b
00000100: 00f5 f9bb f285 c6bb 8f42 1c3c 05e3 3ebc
00000110: eb54 883a fa3a 1e3c a1c9 803b fc0e 2b3b
00000120: 7106 903a e73f 0e3b 95c5 453b 4471 95bb
00000130: 8dee 0fbc b581 fbba 0b05 14bb 1127 483c
00000140: b2eb 9ebb cd9e 1f3b adeb aabc 0b56 a8bc
00000150: 199d 16bc 276d 8a3a 0813 7ebb cb6c 26bc
00000160: f5c1 f73b 700b dbba a8ed f4bb 0fd7 d3bb
00000170: 203e d53b 0adf f9bb 5355 32bc a837 643c
00000180: 263b c9ba 73df e5bb f600 83bb c099 d4bb
00000190: 10e4 54bb a047 633a 629d 773b baa3 593b
000001a0: c597 39bc 82fa c8ba 8d6d df3b 1413 ccbb
000001b0: 60bd f53a 03da aebb 4f43 2d3c 5b2c 0938
000001c0: 53c6 43bb 9d02 693b 8094 b63a 2e22 873b
000001d0: 805c c23b e7df a5bc c9ef 35bc 83c3 b3bb
000001e0: e4c1 84bc 0553 f0bc c70e 8ebc cae7 113b
000001f0: fe6e 0bbc 2b7d 31bc 9fb1 20ba f2ff 3d39
00000200: eb3a 58bb 928f 313c 8b46 7dba 4aae e43b
00000210: 91e4 ae3b c399 7fbc d7b2 8c3a 07cb 313b
00000220: 1b45 063c 222d 81bb 7881 e9bb a54f cf3b
00000230: 1d7c 10bc 1b61 61ba d646 91bc 206d 75bc
00000240: bf6c 86bb 7201 043c d3a1 0e3c 813f 89bb
00000250: 47b7 98b9 5bbd 543b ea59 6d3b 85de 5abc
00000260: b78b 163c ce6f 993a 4332 d339 336a d739
00000270: 2199 0ebc fbc7 a53b 3a81 003b 26ac c4bb
00000280: 8bd6 0dbc 30d2 28bb 55a0 5d3b 3aec 70bb
00000290: 45b0 5b3c 9105 34bc 1f9d 7a3c 9f7e 313c
000002a0: 6cd0 293b 6aaa d0ba daec 1e3b f351 50bb
000002b0: dfbe dd3b e6ce 97bb e11a 0dbc 0b84 b93c
000002c0: 7c27 073b e72e 87bb c27b bebb 289d cf3a
000002d0: e24f a4bb 78ca 583c 7772 0ebc 8bf7 2bbc
000002e0: a322 84bb 2fc3 c23c d772 463c 20a3 1f3c
000002f0: cb53 7c3b 9b25 7bbb 0c08 bb3b 7a2c 5fba
00000300: 23f1 04bc d550 d8bb c8e4 8f3c 9761 a73b
00000310: dfd5 62bc f4c6 8cba ac6c 80bb e7ce 443c
00000320: df97 f43b 128f e93b ada6 7d3b f422 c8b9
00000330: 49dc b5bc 15ba fabb 5b0a 83bc fb76 3d3b
00000340: 33c2 b8bb 8a46 99b9 72e5 083b abd3 ccb9
00000350: 42e9 e63b 8709 f4ba abd0 553c d032 27bc
00000360: a84a 37bb c726 cebc ddbf 60bb 062e 93bc
00000370: a857 a339 63e8 a33c d466 a93b 5c6c 29bc
00000380: 7b84 94bb bfe3 56bc dfc0 963b 0d33 bf3b
00000390: db8f afbb 1b2b 86bb 2ffb 41bc ed6f fc3b
000003a0: f20c f23b fb05 563b 2b61 94bb bc00 323c
000003b0: 38ca c0b9 657f 66bb eb12 41bb cbf9 133b
000003c0: c79d cebb feef 01ba fa87 1bbc 43aa a7bb
000003d0: 7bab cb3b 1a60 71bc 329f d03a 3087 603c
000003e0: 6c6c 35bc 5b44 7fbb ab93 883c 95e3 4f3b
000003f0: 2fe4 3bbc 2c1b 49bc d483 223c 7968 acb9

action_model._discrete_distribution.branches.0.bias f4 [3]
0.0 0.0 0.0
00000000: 0000 0000 0000 0000 0000 0000

action_model._discrete_distribution.branches.1.weight f4 [3, 128]
0.011638134 -0.01073794 -0.006014584 0.012648374 0.015307036 0.002759245 -0.004105817 -0.0021464461
0.0018983086 -0.01231372 0.016245663 0.016143365 -0.007802444 0.016460774 -0.0004952724 -0.013012341
-0.006918173 -0.0055292374 -0.004141218 -0.00086227444 -0.00030024373 0.0013922754 0.005395183 0.007783541
-0.01782094 -0.0046286657 -0.0029103255 0.011748518 0.0037812763 -0.004940989 -0.008319028 0.005824233
0.0034222712 0.0019526687 -0.0012120043 -0.0017178685 0.00172183 -0.017094105 0.011720577 -0.0064443513
0.0018551884 -0.012942585 -0.0013137886 -0.00664657 0.0076429048 0.005189718 0.00417701 0.013961813
-0.008533209 0.009227536 0.011470511 -0.010610972 -0.0023141871 -0.0007906978 0.008259376 0.0057995496
-0.006564785 -0.0024866215 0.0076736375 -0.0149132265 0.01249683 0.004913253 0.01274965 0.0047224523
0.0040816264 -0.0016668637 0.015314651 0.010251302 0.0015753264 -0.0103410175 0.008287003 -0.010775796
0.0044873776 0.0002768927 0.008116967 -0.00044536195 -0.008119511 -0.015583016 -0.01908818 0.007848175
-0.0018358723 0.0012745913 -0.0014530347 0.027612805 -0.007731954 0.0070689023 0.01400775 -0.0037648063
-0.0011682019 0.008843041 -0.0063290778 -0.008514135 0.0061951615 -0.0073389313 -0.01381852 -0.009116507
-0.001224405 -0.009894786 0.024116917 -0.0057718204 0.008275016 0.005969525 0.006932129 -0.0056483517
-0.0007687364 -0.012196558 0.008503618 0.0074826092 -0.012068891 -0.011708718 0.006012355 -0.0050304895
-0.00791902 0.0033476923 -0.0032707632 0.00090815144 0.003444298 0.014820034 -0.009311452 0.0031480219
0.013205771 -0.005464408 0.0054710824 0.007802681 0.009716461 -0.0023008536 0.0020054332 -0.009769024
-0.005244618 0.0047508064 -0.012998955 0.018073218 -0.017542792 -0.008992869 -0.011555518 -0.010453371
0.0031902615 0.0007085633 -0.0062542767 -9.311973e-05 -0.002204708 -0.00046476597 -0.01525184 -0.0068266676
0.0060989833 0.0014551374 -0.00784134 0.0055171205 -0.0046237633 -0.01670789 -0.007511352 0.0027219555
0.007940339 -0.0142560005 -0.009961895 0.015643984 0.005458522 -0.0011357346 -0.0028224061 0.0068675936
0.0018092048 0.001738972 -0.008588619 -0.003107141 0.009723807 -0.010641198 -0.0029947485 -0.0052285525
0.0033234747 -0.00987216 -0.0009824622 -0.0051768897 0.008467421 -0.001199473 0.00022725241 9.941312e-05
-0.0099533005 -0.013116232 -0.0049590757 -0.0028673522 -0.009608743 -0.00397366 0.0048736385 0.0005870152
-0.00057429116 0.0044389814 -0.010624688 -0.0071623246 -0.012315783 0.0024756293 -0.0035220743 -0.006255618
-0.0016590067 0.0040261527 -0.00096382987 -0.012679058 -0.016982464 0.010514546 0.0036770843 0.008849208
0.003168024 -0.01451018 -0.0058745793 0.0036329522 0.009992287 -0.013306769 -0.018677851 0.0004029904
-0.0073156464 -0.009969051 -0.00090650376 0.0037017239 -0.009238407 -0.00387536 -0.00987178 0.008041751
0.009356411 -0.0017444082 -0.0076408493 -0.0038916941 0.0055988 0.0057467557 -0.009618939 0.0029612368
0.012215845 0.014715316 0.006163887 0.0067053684 -0.0125653 0.0030551625 -0.00662732 -0.010972098
-0.004737856 0.00416997 -0.0062616146 0.0018372331 0.01679987 -0.0039437073 0.005758552 0.008708643
0.0095307175 -0.0037774001 -0.013686634 0.013146094 -0.009933735 0.007985213 -0.010268546 0.0074943714
-0.0016045818 -0.0026404024 -0.008523967 0.0075132325 0.0012644072 0.00810786 0.0126420455 0.0024768335
00000000: dfad 3e3c 2fee 2fbc fd15 c5bb 203b 4f3c
00000010: 5dca 7a3c 73d4 343b 178a 86bb 64ab 0cbb
00000020: abd0 f83a 7cbf 49bc a015 853c 173f 843c
00000030: a5ab ffbb bfd8 863c 2bd5 01ba b731 55bc
00000040: d7b1 e2bb 9b2e b5bb 0eb3 87bb 420a 62ba
00000050: 086a 9db9 037d b63a 13ca b03b 130d ff3b
00000060: 38fd 91bc 10ac 97bb 29bb 3ebb db7c 403c
00000070: 4acf 773b 05e8 a1bb 884c 08bc 35d9 be3b
00000080: 2f48 603b b0f0 ff3a 1edc 9eba 1a2a e1ba
00000090: 07af e13a f008 8cbc aa07 403c 232b d3bb
000000a0: cb29 f33a 230d 54bc 6e33 acba 78cb d9bb
000000b0: 5571 fa3b 830e aa3b 4ddf 883b 17c0 643c
000000c0: dfce 0bbc 172f 173c cfee 3b3c a4d9 2dbc
000000d0: 9ea9 17bb d546 4fba 5552 073c 260a be3b
000000e0: 681d d7bb 96f6 22bb 2373 fb3b 9b56 74bc
000000f0: 81bf 4c3c 5aff a03b e8e3 503c cdbe 9a3b
00000100: 2abf 853b aa7a daba 4dea 7a3c 14f5 273c
00000110: 2f7b ce3a 5f6d 29bc 36c6 073c f78c 30bc
00000120: da0a 933b e92b 9139 07fd 043c 787f e9b9
00000130: b307 05bc e84f 7fbc d15e 9cbc a295 003c
00000140: a7a1 f0ba 3010 a73a c173 beba 4034 e23c
00000150: 555c fdbb 40a2 e73b c380 653c f8ba 76bb
00000160: 5a1e 99ba 67e2 103c 2764 cfbb df7e 0bbc
00000170: c800 cb3b 6b7b f0bb 1367 62bc 675d 15bc
00000180: 377c a0ba be1d 22bc d790 c53c 8a21 bdbb
00000190: ef93 073c 019c c33b ea26 e33b cf15 b9bb
000001a0: 0785 49ba 12d4 47bc c252 0b3c ad30 f53b
000001b0: 99bc 45bc ecd5 3fbc 4a03 c53b ced6 a4bb
000001c0: c7be 01bc f564 5b3b 4d5a 56bb 0311 6e3a
000001d0: bbb9 613b bacf 723c 0f8f 18bc 0b4f 4e3b
000001e0: 055d 583c c70e b3bb c446 b33b a2ad ff3b
000001f0: cb31 1f3c ebc9 16bb 966d 033b 420e 20bc
00000200: 0bdb abbb a7ac 9b3b 92f9 54bc 490e 943c
00000210: e7b5 8fbc d456 13bc 5b53 3dbc 9e44 2bbc
00000220: b513 513b e1be 393a adf0 ccbb 4649 c3b8
00000230: dd7c 10bb d5ab f3b9 dbe2 79bc 3db2 dfbb
00000240: fbd9 c73b 4fba be3a f778 00bc f6c8 b43b
00000250: f082 97bb fcde 88bc ca21 f6bb d662 323b
00000260: 3218 023c 0092 69bc 3737 23bc d027 803c
00000270: 67dd b23b eedc 94ba 1ef8 38bb 8d09 e13b
00000280: d722 ed3a 38ee e33a 47b7 0cbc 2da1 4bbb
00000290: 9a50 1f3c 6b58 2ebc 8b43 44bb 4754 abbb
000002a0: a7ce 593b d7be 21bc f6c5 80ba e6a2 a9bb
000002b0: f0ba 0a3c a337 9dba 9b4a 6e39 037c d038
000002c0: 2b13 23bc 77e5 56bc be7f a2bb 30ea 3bbb
000002d0: fd6d 1dbc 7a35 82bb 0bb3 9f3b ece1 193a
000002e0: 078c 16ba e074 913b 2c13 2ebc efb1 eabb
000002f0: 23c8 49bc 2b3e 223b 9ad2 66bb edfb ccbb
00000300: 0773 d9ba d1ed 833b 87a9 7cba d3bb 4fbc
00000310: cf1e 8bbc 3445 2c3c 3dfb 703b 45fc 103c
00000320: 9f9e 4f3b 1bbc 6dbc 8b7f c0bb d316 6e3b
00000330: b0b6 233c a204 5abc 4b02 99bc 7548 d339
00000340: 17b8 efbb 3b55 23bc 70a2 6dba 9f98 723b
00000350: b05c 17bc c0f9 7dbb 3fbd 21bc 8cc1 033c
00000360: a24b 193c a0a4 e4ba 1760 fabb cb0b 7fbb
00000370: 2376 b73b 484f bc3b c198 1dbc 4f11 423b
00000380: f824 483c 8218 713c 6ffa c93b b5b8 db3b
00000390: b0de 4dbc 1f39 483b fd29 d9bb 51c4 33bc
000003a0: 0440 9bbb 3ea4 883b 3b2e cdbb 50cf f03a
000003b0: e29f 893c 373a 81bb 3cb2 bc3b b2ae 0e3c
000003c0: ba26 1c3c 428e 77bb e73d 60bc b762 573c
000003d0: 1bc1 22bc 69d4 023c 673d 28bc 5893 f53b
000003e0: d550 d2ba 9a0a 2dbb 1ca8 0bbc 9031 f63b
000003f0: 77ba a53a d4d6 043c 9520 4f3c 5f52 223b

action_model._discrete_distribution.branches.1.bias f4 [3]
0.0 0.0 0.0
00000000: 0000 0000 0000 0000 0000 0000

critic.network_body.linear_encoder.seq_layers.0.weight f4 [128, 22]
0.14522935 -0.16789937 -0.14164354 -0.07922912 -0.29122242 -0.12005159 0.2580557 0.025920173
0.19898158 -0.21441527 0.19764677 0.13182975 -0.09924247 -0.061032422 -0.04815602 -0.19946612
0.035637464 -0.19013885 0.17392689 0.031194614 -0.44236472 -0.28054354 0.14712903 0.05255433
-0.0025172948 -0.009357115 -0.011095508 -0.04391339 0.6062595 0.21031746 0.05668919 0.5083567
-0.07202067 0.04239374 -0.10240013 0.115320064 -0.23207878 -0.12238754 -0.13201866 -0.12413945
0.28136674 -0.081539445 -0.13626829 -0.024707505 -0.18572623 -0.14701547 -0.00934239 0.16079856
-0.22188942 0.1210138 -0.17574647 0.14568487 -0.26429936 0.0019527053 -0.010378693 -0.46560973
-0.28284398 -0.23539919 0.13402313 0.24722481 -0.21266527 0.17600213 0.018224413 -0.080921985
-0.05618213 -0.114330195 0.043817226 -0.29496288 -0.12187129 -0.051774964 -0.23919247 0.010091051
-0.43322742 -0.06567962 0.031180972 0.010574692 0.15423255 -0.054489408 -0.13492207 -0.34457186
-0.00913596 0.06942359 0.14355323 0.11483195 -0.035028387 0.06915056 0.23320986 0.25697294
0.050124854 -0.044211358 0.037700143 0.0063540856 -0.2865816 -0.10037147 0.041840214 0.085906625
0.22321565 -0.07011245 -0.03758128 -0.039383586 0.027556388 0.23514922 0.09425471 -0.12224429
0.28444833 -0.0048864004 -0.14975837 0.4011303 0.48406383 0.17091045 0.036417793 -0.22159421
-0.3143806 0.36477083 -0.042841133 -0.29203275 0.08261493 0.31549704 -0.3075492 -0.060062453
0.19387893 0.2193492 -0.13996908 0.21792704 -0.19601054 -0.2508145 0.19521011 0.11524354
0.04391221 0.12029782 -0.16650163 0.052380484 -0.4902575 -0.21913625 0.122341074 -0.09435263
0.222315 0.14614594 0.29089814 -0.18359952 -0.1646201 -0.074683614 0.17624655 0.17474611
0.21980703 -0.19920787 0.24044876 0.07371152 -0.38586965 -0.20572291 0.02311327 0.1320322
-0.024422249 0.2077534 -0.21996844 -0.03187617 0.29064694 0.08586422 0.03311535 -0.26414624
0.24841067 0.3912859 -0.026616853 0.0998707 0.13214675 -0.12171702 0.3641793 -0.3342357
-0.039842818 -0.3315071 -0.11887201 0.030567963 -0.002838644 -0.06337746 -0.3827158 -0.09266691
0.16752811 -0.2048682 -0.32338673 0.17172778 0.052487172 -0.036131572 -0.30229405 0.017421726
0.17926858 -0.46762016 0.34224245 -0.26366958 0.052457336 0.05249444 0.20344368 -0.013483239
-0.061254192 -0.028451443 -0.6495288 -0.39189458 0.04092786 0.46875998 -0.1540974 0.075808644
0.14673656 -0.30651212 -0.13608676 -0.24710204 -0.23624875 -0.23657556 0.071375005 0.20296046
0.30611086 -0.4329689 -0.032751407 -0.063874565 0.23119386 -0.3667029 0.17902014 -0.0824046
0.41698706 -0.006872161 -0.1853624 0.22644322 0.30478576 0.1836414 0.4206962 -0.07549092
-0.13617711 0.18431413 -0.44764218 -0.03619843 0.089649454 -0.018220458 0.34745106 -0.2712637
-0.1610335 0.057050645 -0.11505545 0.040905938 -0.029197631 0.30799913 -0.18178074 -0.026602536
0.46469575 0.2667099 0.3219079 0.18769978 -0.09241597 0.03753031 0.05775182 0.13434163
-0.22979648 0.2716326 -0.023291172 0.030643104 -0.1710403 0.05958448 -0.24612768 -0.267697
00000000: 01b7 143e d0ed 2bbe 010b 11be e042 a2bd
00000010: 1b1b 95be 9cdd f5bd e01f 843e 8b56 d43c
00000020: d4c1 4b3e ad8f 5bbe ea63 4a3e 61fe 063e
00000030: a33f cbbd 22fd 79bd 3f3f 45bd d940 4cbe
00000040: 97f8 113d c2b3 42be e419 323e d98b ff3c
00000050: a17d e2be 67a3 8fbe fea8 163e 3643 573d
00000060: 33f9 24bb 964e 19bc efc9 35bc 87de 33bd
00000070: d333 1b3f 765d 573e ed32 683d aa23 023f
00000080: 937f 93bd 0fa5 2d3d 29b7 d1bd ed2c ec3d
00000090: 0fa6 6dbe 52a6 fabd e62f 07be d33c febd
000000a0: 4d0f 903e 27fe a6bd ea89 0bbe 6567 cabc
000000b0: 042f 3ebe 398b 16be d310 19bc 61a8 243e
000000c0: fb36 63be 15d6 f73d e2f6 33be 6a2e 153e
000000d0: 3f52 87be ebf1 ff3a 650b 2abc 6664 eebe
000000e0: edd0 90be 7c0c 71be 5c3d 093e 8028 7d3e
000000f0: edc4 59be e739 343e 5d4b 953c 6dba a5bd
00000100: 3c1f 66bd f325 eabd b179 333d 6005 97be
00000110: a897 f9bd fc11 54bd dfee 74be f054 253c
00000120: fccf ddbe 0983 86bd 3d6f ff3c 7941 2d3c
00000130: 23ef 1d3e 4930 5fbd 0329 0abe b96b b0be
00000140: feae 15bc f52d 8e3d 9eff 123e 032d eb3d
00000150: ed79 0fbd cf9e 8d3d 91ce 6e3e f591 833e
00000160: b84f 4d3d f816 35bd 776b 1a3d ef35 d03b
00000170: d3ba 92be 8f8f cdbd a560 2b3d d0ef af3d
00000180: a592 643e 1e97 8fbd d4ee 19bd af50 21bd
00000190: efbd e13c f5ca 703e 9d08 c13d 375b fabd
000001a0: 36a3 913e 191e a0bb 425a 19be f360 cd3e
000001b0: 37d7 f73e 2603 2f3e d32a 153d 98e9 62be
000001c0: 7ef6 a0be 3ec3 ba3e 2f7a 2fbd 5185 95be
000001d0: 0432 a93d d488 a13e 1777 9dbe 0c04 76bd
000001e0: 3388 463e 149d 603e 0e54 0fbe 4428 5f3e
000001f0: fdb6 48be c26a 80be 29e5 473e ce04 ec3d
00000200: 4add 333d b45e f63d 677f 2abe eb8c 563d
00000210: 0803 fbbe 4165 60be f58d fa3d f43b c1bd
00000220: 8ba6 633e 48a7 153e 9af0 943e 8301 3cbe
00000230: 2c92 28be b9f3 98bd fa79 343e a5f0 323e
00000240: 1815 613e 26fd 4bbe 3338 763e 11f6 963d
00000250: b590 c5be 07a9 52be 0a58 bd3c 7333 073e
00000260: 2b11 c8bc 4fbd 543e 683f 61be 9690 02bd
00000270: adcf 943e 95d9 af3d f6a3 073d 2d3e 87be
00000280: 5e5f 7e3e a056 c83e 960b dabc 0289 cc3d
00000290: 7a51 073e c646 f9bd b675 ba3e f120 abbe
000002a0: 3932 23bd 4cbb a9be 2b73 f3bd aa69 fa3c
000002b0: 8b08 3abb 0bcc 81bd 53f3 c3be 26c8 bdbd
000002c0: 7d8c 2b3e f8c8 51be f292 a5be 68d9 2f3e
000002d0: cafc 563d b3fe 13bd 49c6 9abe 02b8 8e3c
000002e0: 2f92 373e e96b efbe 673a af3e b3ff 86be
000002f0: 81dd 563d 6904 573d 8a53 503e cee8 5cbc
00000300: ade5 7abd 0013 e9bc 8547 26bf 68a6 c8be
00000310: f9a3 273d 4f01 f03e b5cb 1dbe 9041 9b3d
00000320: 1c42 163e 28ef 9cbe 545a 0bbe 5108 7dbe
00000330: 31eb 71be dd40 72be 0f2d 923d ded4 4f3e
00000340: 90ba 9c3e 1aae ddbe 5726 06bd abd0 82bd
00000350: 15be 6c3e 7cc0 bbbe 0e51 373e bec3 a8bd
00000360: 547f d53e dd2f e1bb a4cf 3dbe bbe0 673e
00000370: e10c 9c3e 7e0c 3c3e 7e65 d73e fc9a 9abd
00000380: 0372 0bbe d8bc 3c3e 5b31 e5be ce44 14bd
00000390: 229a b73d 1243 95bc 1be5 b13e 13e3 8abe
000003a0: f7e5 24be f0ad 693d 31a2 ebbd fc8c 273d
000003b0: df2f efbc 10b2 9d3e bb24 3abe 90ed d9bc
000003c0: 9aec ed3e 338e 883e 1dd1 a43e 5f34 403e
000003d0: 9644 bdbd 62b9 193d 2c8d 6c3d da90 093e
000003e0: c54f 6bbe 6e13 8b3e 21cd bebc 3f07 fb3c
000003f0: 3025 2fbe db0e 743d e508 7cbe 950f 89be

critic.network_body.linear_encoder.seq_layers.0.bias f4 [128]
0.0 0.0 0.0 0.0 0.0 0.0 0.0 0.0
0.0 0.0 0.0 0.0 0.0 0.0 0.0 0.0
0.0 0.0 0.0 0.0 0.0 0.0 0.0 0.0
0.0 0.0 0.0 0.0 0.0 0.0 0.0 0.0
0.0 0.0 0.0 0.0 0.0 0.0 0.0 0.0
0.0 0.0 0.0 0.0 0.0 0.0 0.0 0.0
0.0 0.0 0.0 0.0 0.0 0.0 0.0 0.0
0.0 0.0 0.0 0.0 0.0 0.0 0.0 0.0
0.0 0.0 0.0 0.0 0.0 0.0 0.0 0.0
0.0 0.0 0.0 0.0 0.0 0.0 0.0 0.0
0.0 0.0 0.0 0.0 0.0 0.0 0.0 0.0
0.0 0.0 0.0 0.0 0.0 0.0 0.0 0.0
0.0 0.0 0.0 0.0 0.0 0.0 0.0 0.0
0.0 0.0 0.0 0.0 0.0 0.0 0.0 0.0
0.0 0.0 0.0 0.0 0.0 0.0 0.0 0.0
0.0 0.0 0.0 0.0 0.0 0.0 0.0 0.0
00000000: 0000 0000 0000 0000 0000 0000 0000 0000
00000010: 0000 0000 0000 0000 0000 0000 0000 0000
00000020: 0000 0000 0000 0000 0000 0000 0000 0000
00000030: 0000 0000 0000 0000 0000 0000 0000 0000
00000040: 0000 0000 0000 0000 0000 0000 0000 0000
00000050: 0000 0000 0000 0000 0000 0000 0000 0000
00000060: 0000 0000 0000 0000 0000 0000 0000 0000
00000070: 0000 0000 0000 0000 0000 0000 0000 0000
00000080: 0000 0000 0000 0000 0000 0000 0000 0000
00000090: 0000 0000 0000 0000 0000 0000 0000 0000
000000a0: 0000 0000 0000 0000 0000 0000 0000 0000
000000b0: 0000 0000 0000 0000 0000 0000 0000 0000
000000c0: 0000 0000 0000 0000 0000 0000 0000 0000
000000d0: 0000 0000 0000 0000 0000 0000 0000 0000
000000e0: 0000 0000 0000 0000 0000 0000 0000 0000
000000f0: 0000 0000 0000 0000 0000 0000 0000 0000
00000100: 0000 0000 0000 0000 0000 0000 0000 0000
00000110: 0000 0000 0000 0000 0000 0000 0000 0000
00000120: 0000 0000 0000 0000 0000 0000 0000 0000
00000130: 0000 0000 0000 0000 0000 0000 0000 0000
00000140: 0000 0000 0000 0000 0000 0000 0000 0000
00000150: 0000 0000 0000 0000 0000 0000 0000 0000
00000160: 0000 0000 0000 0000 0000 0000 0000 0000
00000170: 0000 0000 0000 0000 0000 0000 0000 0000
00000180: 0000 0000 0000 0000 0000 0000 0000 0000
00000190: 0000 0000 0000 0000 0000 0000 0000 0000
000001a0: 0000 0000 0000 0000 0000 0000 0000 0000
000001b0: 0000 0000 0000 0000 0000 0000 0000 0000
000001c0: 0000 0000 0000 0000 0000 0000 0000 0000
000001d0: 0000 0000 0000 0000 0000 0000 0000 0000
000001e0: 0000 0000 0000 0000 0000 0000 0000 0000
000001f0: 0000 0000 0000 0000 0000 0000 0000 0000

critic.network_body.linear_encoder.seq_layers.2.weight f4 [128, 128]
0.0001464972 0.024820497 0.041358795 -0.032929376 -0.018898359 0.17743823 -0.13841045 0.04116271
-0.0503517 -0.0583261 -0.01851476 -0.053002268 0.05351302 0.02413111 -0.01744715 0.12460326
-0.058277674 -0.11345539 0.08075568 0.0414568 0.04859148 0.09824011 -0.019674353 0.01638536
0.06867179 0.03925178 -0.08614116 0.059396334 0.053528678 -0.028974311 -0.11641957 -0.21386272
-0.0984086 0.12673105 0.07853291 0.1251448 0.27182102 0.07636899 0.047624875 0.01051039
0.058964226 0.029910177 -0.024723157 0.14289616 -0.09531814 -0.056118887 -0.0046631745 -0.026717335
0.10484504 0.0308462 -0.057886876 0.05640308 -0.12081319 -0.040567093 0.08070335 0.047281805
0.15283506 0.03047715 -0.13124616 0.017855138 -0.056128222 0.14875914 0.0009715169 -0.03193545
-0.20292236 -0.07091752 -0.11508229 -0.11116837 0.06302636 0.07300701 0.02761379 0.044786174
0.038952112 -0.033360854 -0.095187135 -0.0071503357 0.026662808 -0.07482822 0.036568798 -0.11887207
-0.036536153 0.018590467 -0.016311962 0.043759543 0.0774422 -0.072571374 0.03439658 -0.020790517
0.110659406 0.028246846 0.07018733 0.068636626 -0.12856519 -0.05122128 0.018431332 -0.06720411
-0.016771086 -0.09261891 0.10003988 -0.061126687 0.025929507 -0.03718239 -0.078952536 -0.15083674
-0.08481277 0.074587524 -0.033165637 0.00052948314 0.05444491 0.040559616 0.09551889 0.028432472
0.09749766 -0.056578603 -0.05362051 -0.075199425 -0.09730661 0.09641872 0.014838735 -0.07368218
-0.13292289 -0.024009142 -0.09289515 -0.057174113 0.14062603 -0.018990023 0.006127898 -0.01301594
0.0105123045 0.057514973 -0.06990741 0.01967519 -0.0006550341 0.12532179 0.026746435 0.17815785
0.023339538 -0.06869531 -0.012385573 0.003102213 0.02583468 0.07492626 -0.027480092 0.017993374
0.015681216 0.031010402 0.027961457 -0.013806855 -0.008004155 0.09123059 -0.060783975 -0.14920051
-0.18655571 -0.051185556 -0.13080266 -0.05764034 -0.014160184 0.11655451 0.034437872 -0.047275655
0.09545677 -0.09652203 -0.083773226 -0.06330639 0.08721751 -0.0193231 -0.029462965 -0.07922645
-0.039407402 0.18705171 0.17023581 -0.050900742 0.046769004 0.13727881 0.01611888 0.022511996
0.008450461 -0.012117051 0.07214766 0.0321154 -0.07978828 0.0047214655 0.080205634 -0.014206767
-0.06064604 -0.0072252215 -0.18218595 0.0697025 0.027191402 -0.010751044 0.016202874 0.040591422
-0.1069741 0.06471938 0.02831451 0.16175117 -0.060767893 -0.08297305 0.018075535 0.03618725
0.110531375 0.094691984 0.045397855 -0.03069301 -0.12026053 -0.1358835 0.01901418 -0.0669985
0.047228254 0.013257505 0.08069737 0.07386293 -0.004494907 -0.043183498 0.092758946 0.0031085394
0.17679884 0.016706463 -0.028159592 0.1671532 -0.015435709 0.067106105 0.0116429785 -0.044993
0.17181621 0.03897003 0.050543267 -0.019023668 0.00081810623 0.08272067 0.010761387 0.07534847
-0.14927047 -0.088029385 0.0858273 -0.09664008 0.09650816 0.16511466 0.077411085 -0.05169134
-0.021971406 -0.05036166 0.056400374 -0.045594007 -0.034889046 0.03298096 0.14933948 0.048798654
-0.0036088733 -0.07291833 0.17636707 0.1331768 -0.011579918 0.13956459 0.060780745 0.009973609
00000000: 0b9d 1939 5b54 cb3c d767 293d f4e0 06bd
00000010: bbd0 9abc 5eb2 353e 78bb 0dbe 3b9a 283d
00000020: 963d 4ebd 59e7 6ebd 44ac 97bc e818 59bd
00000030: 7830 5b3d 9bae c53c 53ed 8ebc fe2f ff3d
00000040: 92b4 6ebd 4d5b e8bd 3c63 a53d 9bce 293d
00000050: dc07 473d 1c32 c93d 1c2c a1bc 973a 863c
00000060: cca3 8c3d 79c6 203d c76a b0bd 9249 733d
00000070: e340 5b3d 895b edbc 626d eebd d4fe 5abe
00000080: 738a c9bd c9c5 013e ddd5 a03d f525 003e
00000090: 202c 8b3e 5867 9c3d 4d12 433d c533 2c3c
000000a0: 7984 713d 3006 f53c 3888 cabc 5f53 123e
000000b0: 2836 c3bd ebdc 65bd 8bcd 98bb 50de dabc
000000c0: ffb8 d63d 2cb1 fc3c ca1a 6dbd ea06 673d
000000d0: e86c f7bd ae29 26bd cc47 a53d 91aa 413d
000000e0: cb80 1c3e 37ab f93c 6565 06be f044 923c
000000f0: b5e6 65bd 5154 183e 65ad 7e3a bfce 02bd
00000100: e1ca 4fbe 343d 91bd 43b0 ebbd 3eac e3bd
00000110: f713 813d b384 953d 5136 e23c b571 373d
00000120: 408c 1f3d 64a5 08bd 79f1 c2bd 5d4d eabb
00000130: f66b da3c 8a3f 99bd 2ac9 153d 3373 f3bd
00000140: efa6 15bd 094b 983c aaa0 85bc 353d 333d
00000150: 049a 9e3d 4da0 94bd 6ee3 0c3d e050 aabc
00000160: 66a1 e23d ee65 e73c 60be 8f3d 5c91 8c3d
00000170: 98a6 03be 68cd 51bd 4efd 963c 4fa2 89bd
00000180: 8463 89bc fcae bdbd b5e1 cc3d fa5f 7abd
00000190: 1e6a d43c 904c 18bd deb1 a1bd f274 1abe
000001a0: 51b2 adbd 58c1 983d b1d8 07bd 03cd 0a3a
000001b0: a001 5f3d d721 263d 689f c33d 37eb e83c
000001c0: daac c73d f7be 67bd 2ea1 5bbd 2802 9abd
000001d0: b048 c7bd 2e77 c53d 2a1e 733c afe6 96bd
000001e0: f01c 08be d2ae c4bc d03f bebd 672f 6abd
000001f0: 4500 103e f790 9bbc 89cc c83b cf40 55bc
00000200: cd3b 2c3c d294 6b3d 9e2b 8fbd dd2d a13c
00000210: 98b6 2bba 5b54 003e 571b db3c 036f 363e
00000220: 8f32 bf3c 20b0 8cbd dcec 4abc 7f4e 4b3b
00000230: 40a3 d33c f072 993d ee1d e1bc d766 933c
00000240: e575 803c 8709 fe3c 6d0f e53c 2636 62bc
00000250: dc23 03bc 1bd7 ba3d 9ef8 78bd 05c8 18be
00000260: 7608 3fbe f2a7 51bd 22f1 05be 4718 6cbd
00000270: 1e00 68bc 22b4 ee3d ba0e 0d3d 1ea4 41bd
00000280: d77e c33d 58ad c5bd 4c91 abbd c8a6 81bd
00000290: 189f b23d 7a4b 9ebc 515c f1bc 7a41 a2bd
000002a0: a869 21bd 7c8a 3f3e 4c52 2e3e 4c7d 50bd
000002b0: db90 3f3d d192 0c3e be0b 843c 146b b83c
000002c0: cd73 0a3c 9886 46bc 27c2 933d 708b 033d
000002d0: 0a68 a3bd 86b6 9a3b da42 a43d 80c3 68bc
000002e0: fb67 78bd 8dc1 ecbb f48e 3abe 2fc0 8e3d
000002f0: 81c0 de3c 2625 30bc e4bb 843c 3143 263d
00000300: 3d15 dbbd 988b 843d d5f3 e73c 19a2 253e
00000310: c1e7 78bd c6ed a9bd 2513 943c 1539 143d
00000320: 465e e23d dfed c13d 1af3 393d e86f fbbc
00000330: 274b f6bd 0b25 0bbe a0c3 9b3c 8236 89bd
00000340: 6a72 413d 0236 593c aa44 a53d 7345 973d
00000350: 034a 93bb 2ee1 30bd 67f8 bd3d a3b8 4b3b
00000360: c10a 353e fedb 883c f2ae e6bc 352a 2b3e
00000370: 0ee6 7cbc ed6e 893d 31c2 3e3c 944a 38bd
00000380: 97f0 2f3e 0a9f 1f3d 7506 4f3d 86d7 9bbc
00000390: 2e76 563a 7469 a93d 8750 303c 4c50 9a3d
000003a0: 5cda 18be c048 b4bd 39c6 af3d 3ceb c5bd
000003b0: 12a6 c53d d113 293e b489 9e3d 4cba 53bd
000003c0: 61fd b3bc 0748 4ebd 1404 673d c8c0 3abd
000003d0: d1e7 0ebd 0b17 073d 73ec 183e 19e1 473d
000003e0: d982 6cbb 3556 95bd 9299 343e 805f 083e
000003f0: b2b9 3dbc 05ea 0e3e 3bf5 783d 5968 233c

critic.network_body.linear_encoder.seq_layers.2.bias f4 [128]
0.0 0.0 0.0 0.0 0.0 0.0 0.0 0.0
0.0 0.0 0.0 0.0 0.0 0.0 0.0 0.0
0.0 0.0 0.0 0.0 0.0 0.0 0.0 0.0
0.0 0.0 0.0 0.0 0.0 0.0 0.0 0.0
0.0 0.0 0.0 0.0 0.0 0.0 0.0 0.0
0.0 0.0 0.0 0.0 0.0 0.0 0.0 0.0
0.0 0.0 0.0 0.0 0.0 0.0 0.0 0.0
0.0 0.0 0.0 0.0 0.0 0.0 0.0 0.0
0.0 0.0 0.0 0.0 0.0 0.0 0.0 0.0
0.0 0.0 0.0 0.0 0.0 0.0 0.0 0.0
0.0 0.0 0.0 0.0 0.0 0.0 0.0 0.0
0.0 0.0 0.0 0.0 0.0 0.0 0.0 0.0
0.0 0.0 0.0 0.0 0.0 0.0 0.0 0.0
0.0 0.0 0.0 0.0 0.0 0.0 0.0 0.0
0.0 0.0 0.0 0.0 0.0 0.0 0.0 0.0
0.0 0.0 0.0 0.0 0.0 0.0 0.0 0.0
00000000: 0000 0000 0000 0000 0000 0000 0000 0000
00000010: 0000 0000 0000 0000 0000 0000 0000 0000
00000020: 0000 0000 0000 0000 0000 0000 0000 0000
00000030: 0000 0000 0000 0000 0000 0000 0000 0000
00000040: 0000 0000 0000 0000 0000 0000 0000 0000
00000050: 0000 0000 0000 0000 0000 0000 0000 0000
00000060: 0000 0000 0000 0000 0000 0000 0000 0000
00000070: 0000 0000 0000 0000 0000 0000 0000 0000
00000080: 0000 0000 0000 0000 0000 0000 0000 0000
00000090: 0000 0000 0000 0000 0000 0000 0000 0000
000000a0: 0000 0000 0000 0000 0000 0000 0000 0000
000000b0: 0000 0000 0000 0000 0000 0000 0000 0000
000000c0: 0000 0000 0000 0000 0000 0000 0000 0000
000000d0: 0000 0000 0000 0000 0000 0000 0000 0000
000000e0: 0000 0000 0000 0000 0000 0000 0000 0000
000000f0: 0000 0000 0000 0000 0000 0000 0000 0000
00000100: 0000 0000 0000 0000 0000 0000 0000 0000
00000110: 0000 0000 0000 0000 0000 0000 0000 0000
00000120: 0000 0000 0000 0000 0000 0000 0000 0000
00000130: 0000 0000 0000 0000 0000 0000 0000 0000
00000140: 0000 0000 0000 0000 0000 0000 0000 0000
00000150: 0000 0000 0000 0000 0000 0000 0000 0000
00000160: 0000 0000 0000 0000 0000 0000 0000 0000
00000170: 0000 0000 0000 0000 0000 0000 0000 0000
00000180: 0000 0000 0000 0000 0000 0000 0000 0000
00000190: 0000 0000 0000 0000 0000 0000 0000 0000
000001a0: 0000 0000 0000 0000 0000 0000 0000 0000
000001b0: 0000 0000 0000 0000 0000 0000 0000 0000
000001c0: 0000 0000 0000 0000 0000 0000 0000 0000
000001d0: 0000 0000 0000 0000 0000 0000 0000 0000
000001e0: 0000 0000 0000 0000 0000 0000 0000 0000
000001f0: 0000 0000 0000 0000 0000 0000 0000 0000

critic.value_heads.value_heads.extrinsic.weight f4 [1, 128]
-0.041043196 -0.056662325 0.09771723 0.022812743 0.1957639 0.15177165 -0.17696394 -0.14807613
0.14300972 0.21193515 0.20187666 -0.046729922 -0.089219496 -0.21056114 -0.06017503 -0.18191245
-0.07758247 -0.10510558 -0.0435102 -0.15435109 -0.071429305 0.0072798557 -0.21553765 -0.10696817
0.07082128 0.057316706 0.06750099 0.058133516 -0.12715851 -0.052130528 0.003425795 0.15029836
-0.06393695 0.028730929 -0.10391242 0.19271018 -0.17617871 -0.05660454 -0.19777775 -0.022776492
-0.2037822 -0.21134046 0.03904369 -0.120494634 -0.089846134 0.08416921 0.052221652 0.1894382
0.020080073 0.211715 0.123614505 0.036085755 -0.103389196 -0.046768125 -0.19918868 0.013842087
-0.106440604 0.10829307 -0.11426417 -0.15224746 -0.07976317 -0.0630998 -0.05063256 0.18862702
-0.0808666 -0.18453576 -0.12374129 -0.21541256 -0.04761598 0.018517202 0.17288712 0.10450578
0.07043613 -0.18237782 -0.18201669 0.08234824 -0.06753893 0.025638688 0.0436859 -0.061459597
-0.014109516 0.05104828 0.17964278 -0.19566207 -0.0293383 -0.04804066 -0.00585435 -0.08808002
0.091305524 0.12667699 -0.19463548 0.20559664 -0.19620192 0.104302295 -0.11638469 -0.057900447
0.15753013 -0.12891 -0.005848077 0.103011966 0.1895326 -0.05073821 0.16201438 -0.16646901
0.16713896 0.19935516 0.026496762 -0.11944522 -0.19365582 -0.026650427 0.16333167 0.015105006
-0.09240275 0.21030867 -0.12493341 0.0043267785 -0.09277595 0.11580169 -0.20411347 -0.016745726
-0.0805989 0.14444235 -0.11284663 0.09506511 0.07482993 -0.07214481 0.16851103 0.20126174
00000000: e91c 28bd c116 68bd f91f c83d cae1 ba3c
00000010: 5576 483e 076a 1b3e 0936 35be 45a1 17be
00000020: 2471 123e 8705 593e c1b8 4e3e e067 3fbd
00000030: b6b8 b6bd 579d 57be 187a 76bd 4247 3abe
00000040: 8fe3 9ebd 9841 d7bd c037 32bd 360e 1ebe
00000050: 8749 92bd db8b ee3b e7b5 5cbe 2112 dbbd
00000060: bf0a 913d ecc4 6a3d f63d 8a3d 691d 6e3d
00000070: d735 02be d286 55bd 4d83 603b d0e7 193e
00000080: 60f1 82bd 205d eb3c 09d0 d4bd d155 453e
00000090: 3168 34be 2ada 67bd 4086 4abe c495 babc
000000a0: 48ac 50be a269 58be 47ec 1f3d e4c5 f6bd
000000b0: 4001 b8bd e860 ac3d 5fe6 553d 16fc 413e
000000c0: f77e a43c d1cb 583e 9a29 fd3d a8ce 133d
000000d0: b7bd d3bd ef8f 3fbd 1ef8 4bbe ecc9 623c
000000e0: 88fd d9bd c2c8 dd3d 5503 eabd c2e6 1bbe
000000f0: df5a a3bd 783a 81bd 1664 4fbd 7127 413e
00000100: 639d a5bd f1f6 3cbe 136c fdbd 1c95 5cbe
00000110: f908 43bd 63b1 973c 5209 313e 2007 d63d
00000120: d140 903d 40c1 3abe 9562 3abe 32a6 a83d
00000130: da51 8abd 3a08 d23c fcef 323d 0fbd 7bbd
00000140: 992b 67bc 0018 513d 47f4 373e a35b 48be
00000150: e056 f0bc 48c6 44bd d9d5 bfbb 4c63 b4bd
00000160: 64fe ba3d 9db7 013e 864e 47be ed87 523e
00000170: 28e9 48be 719c d53d 195b eebd 0529 6dbd
00000180: 944f 213e fc00 04be 3aa1 bfbb f0f7 d23d
00000190: d514 423e dfd2 4fbd 19e7 253e da76 2abe
000001a0: 7a26 2b3e c223 4c3e bd0f d93c b29f f4bd
000001b0: b64d 46be ff51 dabc 6b40 273e fd7a 773c
000001c0: a73d bdbd 285b 573e 16dd ffbd a6c7 8d3b
000001d0: 5101 bebd 7029 ed3d 1f03 51be 552e 89bc
000001e0: 0911 a5bd b2e8 133e 221c e7bd 7fb1 c23d
000001f0: 6f40 993d a8c0 93bd 288e 2c3e 8f17 4e3e
