results/ppo/MoveToGoal/MoveToGoal-0.pt (torch, 170599 bytes, 15 tensors)

network_body.linear_encoder.seq_layers.0.weight f4 [128, 22]
000000 21 4e f0 3c 2c 63 73 be 5d 81 81 be 8c 61 84 3d
       0.02933413 -0.237683 -0.2529401 0.06463918
000010 97 b5 81 3d 81 04 74 bd 60 cd 46 bc 49 19 01 be
       0.06333464 -0.059574608 -0.012133926 -0.12607302
000020 4b e8 47 bd 90 fd 3f bd 3d aa 8c 3e b4 fc 8a be
       -0.048805516 -0.046872675 0.27473632 -0.27145922
000030 67 92 1c 3e dc cb 35 be 97 2b 66 be a7 00 8e 3d
       0.15290223 -0.17753547 -0.22477566 0.06933718
000040 df 46 f6 bc 58 cb 88 be 86 08 bc bd b6 23 ea 3e
       -0.03006309 -0.2671764 -0.09181313 0.4573037
000050 db e0 fe 3d 52 cc 8c 3e 66 72 b5 3c 03 ff 20 3f
       0.124452315 0.27499634 0.022149276 0.62889117
000060 19 5a ae bd 07 54 9b be a1 8d 01 3f d4 d0 7d 3e
       -0.085132785 -0.30337545 0.50606734 0.24786693
000070 9d 21 09 3e bc 61 88 3e 85 83 a0 3e a5 29 d3 bb
       0.13391729 0.26637065 0.3135034 -0.0064441734
000080 9f fd 30 3e c1 24 ac be e2 f7 48 3e 92 f3 0d 3e
       0.17284249 -0.3362179 0.1962581 0.13862446
000090 5d 79 a9 3d 0a 6e c2 3d e0 3d a0 bd 48 2c 45 3e
       0.08275101 0.094936445 -0.07824302 0.19255173
0000a0 a9 fb 1a be f5 3d 9b be 41 b2 03 bd a3 32 10 be
       -0.15135063 -0.30320707 -0.032152418 -0.14081816
0000b0 de 13 ab 3c 3e ae d2 3d e8 e2 1d 3e 07 3e 53 3e
       0.020883497 0.1028714 0.15418589 0.2062913
0000c0 0b 25 82 bc 61 27 4e bc 9b b3 66 bd 85 43 40 3e
       -0.015886804 -0.012582631 -0.05632363 0.18775757
0000d0 21 13 18 3d 3a 18 ed bc 6a ba 01 bf f2 04 2e bc
       0.037127618 -0.028942216 -0.5067507 -0.010621296
0000e0 00 df 3a 3e 8e d8 ff 3d 16 9c 8c bd f4 a7 fa 3d
       0.1824913 0.124924764 -0.068657085 0.12239066
0000f0 08 e6 c4 bc 21 fb 88 be 30 fe 6a be 76 07 46 bd
       -0.024035469 -0.26754096 -0.22948527 -0.04834696
000100 85 82 92 3e 10 21 bf 3e d2 c2 6f bd ae 0f a9 be
       0.28615203 0.37329912 -0.058535405 -0.33019775
000110 4e 0b 02 3e 64 40 ef 3d e6 38 ec 3d db 93 99 be
       0.12699625 0.116822034 0.1153429 -0.29995617
000120 ff 2a 5f 3e 58 f5 c8 3e 2a c5 ee 3e b7 42 4d 3e
       0.21793745 0.39249682 0.466348 0.20044981
000130 3f 0c 1f bf 45 e6 7e be 50 2d 6b be 85 89 e0 be
       -0.6212806 -0.24892528 -0.22966504 -0.4385492
000140 28 8f 47 be 5b 64 96 3e 35 dd 2e bf b3 83 ad be
       -0.19488204 0.2937344 -0.68306285 -0.3388954
000150 26 b4 9f be 7f 6b 7b 3e 40 3c e3 3d 2a b5 f2 3c
       -0.3119213 0.24552725 0.11095476 0.029627401
000160 19 69 8a 3e 24 90 8e 3e 36 35 72 bd c8 f5 80 3e
       0.27033308 0.27844346 -0.059132777 0.25187516
000170 03 db fd 3d 47 f2 b1 3d 20 96 33 3c 41 b1 c9 bd
       0.12395289 0.08688789 0.010961086 -0.098482616
000180 d0 f7 96 3e 28 fd b7 be ba 51 51 be 6a 58 2a 3e
       0.2948594 -0.3593533 -0.20441332 0.1663529
000190 98 67 4c 3e f9 d1 0e be d3 a8 05 3e d2 a8 cd 3e
       0.19961393 -0.13947286 0.13052683 0.40167862
0001a0 29 5f 61 be 05 b1 c2 bd 4c b5 71 be 9d c8 74 be
       -0.22008957 -0.0950642 -0.23604316 -0.23904653
0001b0 55 df 53 bb ba 13 81 be f9 8b 1d be a2 2d 0b 3e
       -0.0032329161 -0.25210363 -0.15385427 0.13591626
0001c0 45 20 65 be 39 66 2c 3e f1 15 00 bf e6 6c 89 be
       -0.22375591 0.1683587 -0.5003348 -0.26840895
0001d0 2c 41 46 bc 1d 01 a2 be 56 f3 d3 bd bc c1 8a 3e
       -0.012100499 -0.31641474 -0.10349147 0.27100933
0001e0 7f 41 b0 3e 5d ee 62 3e 3a 86 59 be 70 27 4e 3e
       0.3442497 0.22161241 -0.2124261 0.20132232
0001f0 70 6f c7 3d 6a ee a6 3e b9 ab 80 3c 61 d1 71 bd
       0.09738052 0.3260377 0.015706884 -0.05903757
000200 87 31 74 3e b8 47 d2 3d 36 f9 28 be c5 90 a3 3e
       0.23847018 0.102675855 -0.16501316 0.31946388
000210 b1 81 9f 3c 82 ed d7 3d f5 10 ef bd 34 a9 01 bd
       0.019471021 0.10543348 -0.11673156 -0.031655505
000220 b3 67 78 3e 88 48 e7 bd f8 30 0c 3e 14 ef 62 be
       0.24258308 -0.11293131 0.13690555 -0.22161514
000230 bc 72 86 3c db 3b 51 be 9f 72 b3 3d 65 5a 73 3e
       0.016412131 -0.2043299 0.087620966 0.23764952
000240 51 b3 11 be 59 c2 c2 bd 68 97 ee 3c 44 77 4b 3d
       -0.1422856 -0.09509725 0.02912493 0.049674287
000250 d5 62 bf 3d 45 5c 13 3e e2 8a 71 3e c0 4e 90 3e
       0.093450226 0.14390667 0.23588136 0.2818508
000260 4a 22 18 3e 9f f4 75 be d2 ef 5d be 09 a7 8d be
       0.1485683 -0.24019097 -0.21673515 -0.276665
000270 49 4d 8b 3c 97 a8 65 be 5b 3f 79 3d 90 68 a9 be
       0.017004626 -0.22427593 0.060851436 -0.33087587
000280 2f 6c 30 be b4 45 bf 3e 17 bb c1 be 73 c1 7b 3e
       -0.17228769 0.37357867 -0.3783805 0.24585514
000290 63 8f 15 3e a1 37 0a be 06 c2 8f be ed 20 b5 3e
       0.14605479 -0.13497783 -0.28077716 0.35376683
0002a0 c8 bd ca 3e 48 ce 0a be c9 73 58 be 0d 7b c3 be
       0.39597917 -0.13555253 -0.21137919 -0.38179818
0002b0 f3 65 09 be b5 47 ce bd 90 ae 37 3d 12 9b 9b 3e
       -0.13417797 -0.10072271 0.04484421 0.30391747
0002c0 98 81 7f be 7b 1b e1 bd ed 89 95 be 35 cc e6 3c
       -0.2495178 -0.109915696 -0.29206792 0.028173545
0002d0 21 0e 62 be ed 7e 4a be 79 7f 47 bd 0b db 63 be
       -0.22075702 -0.19774981 -0.04870555 -0.22251527
0002e0 ee 94 0b 3e 58 1a 48 bf 90 93 8f 3d 3c d2 d6 be
       0.13631031 -0.781652 0.07010567 -0.4195727
0002f0 b0 60 a0 be cf bc 84 bd 23 02 41 bd 05 fa 1f 3e
       -0.31323767 -0.06481325 -0.04712118 0.15622719
000300 06 f4 3b be 34 c5 69 3c 68 c4 46 3d 31 b6 0d 3d
       -0.18354806 0.014268208 0.04852715 0.03459758
000310 ee d2 ee 3b 71 1e 22 be b2 d5 42 be 3b f2 28 be
       0.0072883284 -0.15831925 -0.19026831 -0.16498654
000320 7d c1 0d be ee de a0 be f1 5b 0c bd de cb dc bc
       -0.13843341 -0.31420082 -0.03426737 -0.02695268
000330 d9 3a 23 3d f0 53 4a 3e 71 1e e5 be ce 9e e9 3d
       0.039851043 0.19758582 -0.44749787 0.11407243
000340 40 18 d7 3d b2 3c 94 bd 97 4c f8 3d 7e 70 07 3e
       0.10502672 -0.07238139 0.12123983 0.13226506
000350 60 74 33 3e c3 da ac 3d 47 20 8e 3e 16 bc 17 3e
       0.17524862 0.08440163 0.27759 0.14817843
000360 44 dd c8 bd ac 76 e4 3d 6d f3 93 3d d5 0b 00 3e
       -0.09807828 0.11155447 0.07224164 0.12504514
000370 8c 9b 7c 3e 00 4d 46 3e 71 27 9c 3e 3a 75 13 3e
       0.24668711 0.1936531 0.3049884 0.14400187
000380 a7 0e 47 be 59 4b f8 3d 37 52 16 bd a9 e9 9e 3e
       -0.19439183 0.121237464 -0.0366995 0.31037644
000390 fe 4e d9 bc b2 05 15 be 11 8a 8b bd a5 cb 97 3d
       -0.026526924 -0.14552954 -0.068134435 0.07411889
0003a0 a6 c4 08 bf 63 a7 a8 bd f7 c9 2b be 58 9d 8c 3d
       -0.5342506 -0.082350515 -0.16776262 0.068659484
0003b0 70 42 34 be c7 1a 27 3d bd 08 25 be 3a 76 0f 3e
       -0.17603469 0.04079702 -0.16116615 0.14009944
0003c0 5c af a8 bc b0 23 92 bc f3 dd 28 be 28 ee e7 bd
       -0.02059143 -0.017839283 -0.16490917 -0.113247216
0003d0 d8 b9 32 bd 8d db 4c be 41 1c 80 be 6c 9b 15 bc
       -0.043634266 -0.20005627 -0.25021556 -0.009131294
0003e0 35 ee 84 3e 5e 55 c3 bd 65 2b b5 bd 43 e9 1a bc
       0.25962988 -0.09537767 -0.088461675 -0.009455028
0003f0 2c 90 59 3d bc b0 22 3d 77 42 ac be ea bd a9 bd
       0.05311601 0.03971933 -0.3364446 -0.08288176

network_body.linear_encoder.seq_layers.0.bias f4 [128]
000000 00 00 00 00 00 00 00 00 00 00 00 00 00 00 00 00
       0.0 0.0 0.0 0.0
000010 00 00 00 00 00 00 00 00 00 00 00 00 00 00 00 00
       0.0 0.0 0.0 0.0
000020 00 00 00 00 00 00 00 00 00 00 00 00 00 00 00 00
       0.0 0.0 0.0 0.0
000030 00 00 00 00 00 00 00 00 00 00 00 00 00 00 00 00
       0.0 0.0 0.0 0.0
000040 00 00 00 00 00 00 00 00 00 00 00 00 00 00 00 00
       0.0 0.0 0.0 0.0
000050 00 00 00 00 00 00 00 00 00 00 00 00 00 00 00 00
       0.0 0.0 0.0 0.0
000060 00 00 00 00 00 00 00 00 00 00 00 00 00 00 00 00
       0.0 0.0 0.0 0.0
000070 00 00 00 00 00 00 00 00 00 00 00 00 00 00 00 00
       0.0 0.0 0.0 0.0
000080 00 00 00 00 00 00 00 00 00 00 00 00 00 00 00 00
       0.0 0.0 0.0 0.0
000090 00 00 00 00 00 00 00 00 00 00 00 00 00 00 00 00
       0.0 0.0 0.0 0.0
0000a0 00 00 00 00 00 00 00 00 00 00 00 00 00 00 00 00
       0.0 0.0 0.0 0.0
0000b0 00 00 00 00 00 00 00 00 00 00 00 00 00 00 00 00
       0.0 0.0 0.0 0.0
0000c0 00 00 00 00 00 00 00 00 00 00 00 00 00 00 00 00
       0.0 0.0 0.0 0.0
0000d0 00 00 00 00 00 00 00 00 00 00 00 00 00 00 00 00
       0.0 0.0 0.0 0.0
0000e0 00 00 00 00 00 00 00 00 00 00 00 00 00 00 00 00
       0.0 0.0 0.0 0.0
0000f0 00 00 00 00 00 00 00 00 00 00 00 00 00 00 00 00
       0.0 0.0 0.0 0.0
000100 00 00 00 00 00 00 00 00 00 00 00 00 00 00 00 00
       0.0 0.0 0.0 0.0
000110 00 00 00 00 00 00 00 00 00 00 00 00 00 00 00 00
       0.0 0.0 0.0 0.0
000120 00 00 00 00 00 00 00 00 00 00 00 00 00 00 00 00
       0.0 0.0 0.0 0.0
000130 00 00 00 00 00 00 00 00 00 00 00 00 00 00 00 00
       0.0 0.0 0.0 0.0
000140 00 00 00 00 00 00 00 00 00 00 00 00 00 00 00 00
       0.0 0.0 0.0 0.0
000150 00 00 00 00 00 00 00 00 00 00 00 00 00 00 00 00
       0.0 0.0 0.0 0.0
000160 00 00 00 00 00 00 00 00 00 00 00 00 00 00 00 00
       0.0 0.0 0.0 0.0
000170 00 00 00 00 00 00 00 00 00 00 00 00 00 00 00 00
       0.0 0.0 0.0 0.0
000180 00 00 00 00 00 00 00 00 00 00 00 00 00 00 00 00
       0.0 0.0 0.0 0.0
000190 00 00 00 00 00 00 00 00 00 00 00 00 00 00 00 00
       0.0 0.0 0.0 0.0
0001a0 00 00 00 00 00 00 00 00 00 00 00 00 00 00 00 00
       0.0 0.0 0.0 0.0
0001b0 00 00 00 00 00 00 00 00 00 00 00 00 00 00 00 00
       0.0 0.0 0.0 0.0
0001c0 00 00 00 00 00 00 00 00 00 00 00 00 00 00 00 00
       0.0 0.0 0.0 0.0
0001d0 00 00 00 00 00 00 00 00 00 00 00 00 00 00 00 00
       0.0 0.0 0.0 0.0
0001e0 00 00 00 00 00 00 00 00 00 00 00 00 00 00 00 00
       0.0 0.0 0.0 0.0
0001f0 00 00 00 00 00 00 00 00 00 00 00 00 00 00 00 00
       0.0 0.0 0.0 0.0

network_body.linear_encoder.seq_layers.2.weight f4 [128, 128]
000000 dc af ee 3c 93 c0 82 3c 67 f7 d5 3d 34 d8 11 3d
       0.02913659 0.015960967 0.10447579 0.035606578
000010 ff d8 0b 3e d9 cd aa 3d 63 f1 02 3e 1d 78 c3 3d
       0.13656996 0.083400436 0.12787394 0.09544394
000020 e4 3a f5 bc cb d3 02 3e 8c ef c4 3d 6e fe 09 3d
       -0.029935308 0.12776105 0.096160024 0.03368991
000030 95 d1 92 3c da ab 9d bd ac 34 24 3d a4 ae d7 bd
       0.017922202 -0.07698794 0.040089294 -0.10531357
000040 83 14 ba 3d f5 3d 54 3d dd d2 0e bd 56 de 71 bd
       0.090859435 0.0518169 -0.034869064 -0.059049927
000050 6c 63 be bd 4b 9a 89 3d c9 d5 ae bd f5 b0 0a be
       -0.09296307 0.06718882 -0.0853687 -0.13544066
000060 6e a5 07 3e ac 32 80 be 73 b1 8c bd 30 cb 47 3d
       0.132467 -0.2503866 -0.06869783 0.04877776
000070 bb be 38 bd fc 1e 25 bc 23 4c 79 bd 4a 80 28 3d
       -0.04510377 -0.010078188 -0.060863625 0.04113797
000080 f1 6c 8c bd 91 34 79 3d 1a 7b 27 bd d7 05 e5 3d
       -0.068567164 0.060841147 -0.040888883 0.111827545
000090 4a d5 a5 ba 53 a3 9a bd 12 37 26 bd 94 a0 41 bc
       -0.0012652066 -0.07550683 -0.040579863 -0.01181807
0000a0 ab 5c 19 3d d8 fa 00 3e 75 82 3b 3d 21 c3 1c 3e
       0.03744189 0.1259569 0.04577871 0.15308811
0000b0 db ea da 3d 02 8c 27 3c 12 4d bf bd bc 7d 96 bb
       0.106893264 0.010226252 -0.09340872 -0.0045926254
0000c0 f8 54 88 3d 0d 4d e7 3c 4c 2d a5 bb 36 6c 4e 3a
       0.066568315 0.028234983 -0.0050408 0.0007874401
0000d0 e9 7c 83 3d 2e ea 7c 3b be 32 87 bc 25 fa b6 bd
       0.06420309 0.003859173 -0.016503688 -0.0893443
0000e0 b6 cf df 3d 42 65 14 be 2e b0 83 bc 92 cb 1d 3d
       0.109282896 -0.14491752 -0.01607522 0.038524218
0000f0 5f 7c 08 be 17 dc b3 bd 04 74 3d 3d 93 9a 85 3b
       -0.13328694 -0.08782213 0.04625322 0.0040772646
000100 8e 2c 08 be c1 42 ee 3d f4 fb 97 bd 61 5e b3 3d
       -0.13298246 0.11633826 -0.07421103 0.08758236
000110 3e b2 10 be 09 c6 ff bd b5 9f 07 be 42 7e 60 bd
       -0.14130494 -0.12488944 -0.13244517 -0.05480791
000120 21 7e af bd db 13 e7 bc 85 38 0c be 3d 9f 20 bd
       -0.08568979 -0.02820771 -0.13693435 -0.03921436
000130 12 cc 08 bd 61 60 2f be 62 da 57 bd 05 f5 e0 bc
       -0.03339774 -0.1712661 -0.0526985 -0.027460584
000140 80 50 11 bd e3 d0 89 3d 2f 68 32 3d 35 1f cb 3d
       -0.03547716 0.06729295 0.04355639 0.09918062
000150 d9 f0 66 bd 89 19 aa bd 84 50 b5 bd 94 df c7 bd
       -0.056382034 -0.08305652 -0.08853248 -0.09759441
000160 e6 2d 32 3d 5f f9 87 be 2a 56 56 be b5 2a 05 3e
       0.043500803 -0.26557443 -0.20931306 0.13004573
000170 94 4b a1 bd 92 84 5c bd a4 f7 5c be 1f 28 f2 bc
       -0.078757435 -0.053837366 -0.21578842 -0.029560147
000180 88 04 0c be 82 b3 16 3c 02 50 5d bd e6 fa 34 3d
       -0.13673604 0.009198071 -0.05403138 0.044184588
000190 6b 81 70 3d 9c 49 8d bc 39 63 b5 bd 02 89 02 bb
       0.058717173 -0.017247014 -0.08856816 -0.0019918089
0001a0 97 5e 40 bd 07 e9 e9 bd 4f 79 ff bc 06 91 86 3c
       -0.046965208 -0.114213996 -0.031185774 0.016426574
0001b0 bd 1f f9 bd c4 c5 b9 bd bd 73 dd bd 63 ab 38 3c
       -0.12164257 -0.09070924 -0.10813091 0.0112713305
0001c0 74 03 d4 bc 47 11 cf bd c2 1c c9 3c c0 9b 58 3c
       -0.025880553 -0.10110717 0.024549846 0.013220727
0001d0 9a 3b 22 3d 4a 8a 70 bd b9 da a1 3d bf 0c 2f bd
       0.03960762 -0.058725633 0.07903046 -0.042736765
0001e0 28 0a 66 3d a9 43 25 3e df 3d 87 bd 99 b4 b2 3d
       0.05616203 0.16139092 -0.06603598 0.087258525
0001f0 4e a4 51 bd e5 6d 81 bc f8 ea b9 3d 85 4a 14 3b
       -0.051182084 -0.015799472 0.0907802 0.0022627425
000200 03 ee ea 3c 5d 73 7a bd 86 6a ca bd 34 55 e9 3d
       0.028677946 -0.061145175 -0.09883599 0.11393204
000210 1a 1c 75 3d 08 71 5c 3d 43 a9 04 3e ac 4f 2c bd
       0.059841253 0.053818733 0.12955193 -0.04206817
000220 23 2f 11 bd 10 f0 d8 bd ae f6 89 3d 5a dd 8f bc
       -0.035445344 -0.10592663 0.067365035 -0.017561603
000230 4a 0a 52 3d 73 c0 52 3e 58 b2 8b bd 21 5b ce 3d
       0.051279344 0.20581226 -0.06821126 0.10075975
000240 c3 ee 79 bd 6b de 07 3d a6 27 c7 3d 4e ac 07 be
       -0.061018717 0.0331711 0.09724359 -0.13249323
000250 8d 57 6d bc a8 8d 81 bd 18 e7 0f be e7 83 e1 3d
       -0.014486206 -0.06325847 -0.14052999 0.110114865
000260 62 6c f6 bd 2e b9 84 bb 93 18 d7 bd 0d d4 b9 bc
       -0.12032391 -0.0040503955 -0.10502734 -0.022684122
000270 5f 66 05 be 9f 96 12 3d d1 a5 21 3e 02 44 97 3d
       -0.13027333 0.035788175 0.1578591 0.07386018
000280 2c c5 4f bd a1 d0 5e be 0b 38 9a bb a2 bf 6a 3d
       -0.050725147 -0.21759273 -0.004706388 0.05731166
000290 fc 47 96 3d 2e 02 03 3e 59 7a 85 3d d3 f8 22 3d
       0.07337949 0.127938 0.065174766 0.03978808
0002a0 53 bf da bd 6b dd 0d 3d bc b3 d1 3d 56 f6 96 3d
       -0.106810234 0.03463499 0.1023936 0.073712036
0002b0 78 3a 75 bd 42 84 e3 3b aa 56 da 3d 2c 06 6a bd
       -0.059870213 0.0069432566 0.10661061 -0.057134792
0002c0 a5 69 ea 3c 1c 94 10 be 99 af 6f bc 19 98 da 3d
       0.028614828 -0.14118999 -0.014629268 0.106735416
0002d0 11 d6 68 3c c7 8d 90 bd fb 4f cf 3d 07 26 5a bc
       0.014211194 -0.07058292 0.10122677 -0.0133147305
0002e0 02 90 a4 bd e0 fe 43 bd 4d aa 4d be 93 b9 91 bd
       -0.0803528 -0.04785049 -0.20084496 -0.071154736
0002f0 94 86 3b bd b2 88 15 3d 31 eb e0 bb d9 4a 49 3d
       -0.04578264 0.036507316 -0.0068639745 0.049143646
000300 4a fe 1b bd f8 76 7a 3e 6a 83 ef bd 04 82 ff 3d
       -0.038084306 0.24459445 -0.11694987 0.124759704
000310 eb 2f e6 bb af 7c 33 3e a6 9e 27 bd 8b 7a 89 bd
       -0.0070247552 0.17528032 -0.040922783 -0.06712826
000320 b8 f3 b4 3d e1 c2 9b 3d 2a fb 69 3d 82 b3 93 3c
       0.08835548 0.076055296 0.057124294 0.018029932
000330 ed ad 91 3d 2d 1e 3e bd dd 52 47 bc d9 3a 32 3e
       0.07113252 -0.046415497 -0.012165752 0.17405261
000340 8b ee 1a 3d ae 1b a2 3d e1 b6 9c 3d c3 94 61 3d
       0.03782515 0.07915436 0.07652069 0.05507351
000350 aa 27 c4 3d a9 59 c1 3d c7 0f fa 3c b7 f4 03 bc
       0.09577878 0.094409294 0.030525101 -0.00805395
000360 65 8d 18 be cc 27 3d 3e 5e be 00 bc 2b ca 69 3d
       -0.14897688 0.18472213 -0.007857887 0.057077568
000370 27 8e bf 3d 42 83 cd 3d 7a e6 d9 3c 0f 05 0f 3e
       0.09353285 0.10034801 0.026599158 0.13966773
000380 c2 10 64 3d 67 22 56 3d 55 51 dd bd 83 45 c5 3d
       0.055680044 0.052278902 -0.108065285 0.09632399
000390 db 9a 96 3d 70 8f 50 3d e0 6a da bd 61 69 95 bd
       0.07353755 0.050918043 -0.10664916 -0.0729549
0003a0 0d 2c b9 bd e8 ae 00 bc a6 8c cd bb bb cd 7f 3c
       -0.09041605 -0.007854201 -0.00627287 0.015613015
0003b0 95 33 89 bd 8c 70 51 3d 7e 5b ad bd ed 4b 34 be
       -0.066992916 0.051132724 -0.084647164 -0.17607088
0003c0 84 54 60 bd 10 39 0d bd ac 22 fe 3d d2 60 24 3b
       -0.0547681 -0.034478247 0.12408957 0.0025082123
0003d0 44 73 7d bd 3c 48 24 be 38 22 fb 3c 6d 55 85 3c
       -0.061877504 -0.1604318 0.030655965 0.016276086
0003e0 c4 c3 fe 3c e3 d9 60 bc 89 59 57 bd 8d cb dc bc
       0.031099208 -0.013723823 -0.05257562 -0.02695253
0003f0 29 7c b1 3d b8 e6 0b bd e8 9a f2 3d d5 45 c8 3d
       0.0866626 -0.034155577 0.11845952 0.097789444

network_body.linear_encoder.seq_layers.2.bias f4 [128]
000000 00 00 00 00 00 00 00 00 00 00 00 00 00 00 00 00
       0.0 0.0 0.0 0.0
000010 00 00 00 00 00 00 00 00 00 00 00 00 00 00 00 00
       0.0 0.0 0.0 0.0
000020 00 00 00 00 00 00 00 00 00 00 00 00 00 00 00 00
       0.0 0.0 0.0 0.0
000030 00 00 00 00 00 00 00 00 00 00 00 00 00 00 00 00
       0.0 0.0 0.0 0.0
000040 00 00 00 00 00 00 00 00 00 00 00 00 00 00 00 00
       0.0 0.0 0.0 0.0
000050 00 00 00 00 00 00 00 00 00 00 00 00 00 00 00 00
       0.0 0.0 0.0 0.0
000060 00 00 00 00 00 00 00 00 00 00 00 00 00 00 00 00
       0.0 0.0 0.0 0.0
000070 00 00 00 00 00 00 00 00 00 00 00 00 00 00 00 00
       0.0 0.0 0.0 0.0
000080 00 00 00 00 00 00 00 00 00 00 00 00 00 00 00 00
       0.0 0.0 0.0 0.0
000090 00 00 00 00 00 00 00 00 00 00 00 00 00 00 00 00
       0.0 0.0 0.0 0.0
0000a0 00 00 00 00 00 00 00 00 00 00 00 00 00 00 00 00
       0.0 0.0 0.0 0.0
0000b0 00 00 00 00 00 00 00 00 00 00 00 00 00 00 00 00
       0.0 0.0 0.0 0.0
0000c0 00 00 00 00 00 00 00 00 00 00 00 00 00 00 00 00
       0.0 0.0 0.0 0.0
0000d0 00 00 00 00 00 00 00 00 00 00 00 00 00 00 00 00
       0.0 0.0 0.0 0.0
0000e0 00 00 00 00 00 00 00 00 00 00 00 00 00 00 00 00
       0.0 0.0 0.0 0.0
0000f0 00 00 00 00 00 00 00 00 00 00 00 00 00 00 00 00
       0.0 0.0 0.0 0.0
000100 00 00 00 00 00 00 00 00 00 00 00 00 00 00 00 00
       0.0 0.0 0.0 0.0
000110 00 00 00 00 00 00 00 00 00 00 00 00 00 00 00 00
       0.0 0.0 0.0 0.0
000120 00 00 00 00 00 00 00 00 00 00 00 00 00 00 00 00
       0.0 0.0 0.0 0.0
000130 00 00 00 00 00 00 00 00 00 00 00 00 00 00 00 00
       0.0 0.0 0.0 0.0
000140 00 00 00 00 00 00 00 00 00 00 00 00 00 00 00 00
       0.0 0.0 0.0 0.0
000150 00 00 00 00 00 00 00 00 00 00 00 00 00 00 00 00
       0.0 0.0 0.0 0.0
000160 00 00 00 00 00 00 00 00 00 00 00 00 00 00 00 00
       0.0 0.0 0.0 0.0
000170 00 00 00 00 00 00 00 00 00 00 00 00 00 00 00 00
       0.0 0.0 0.0 0.0
000180 00 00 00 00 00 00 00 00 00 00 00 00 00 00 00 00
       0.0 0.0 0.0 0.0
000190 00 00 00 00 00 00 00 00 00 00 00 00 00 00 00 00
       0.0 0.0 0.0 0.0
0001a0 00 00 00 00 00 00 00 00 00 00 00 00 00 00 00 00
       0.0 0.0 0.0 0.0
0001b0 00 00 00 00 00 00 00 00 00 00 00 00 00 00 00 00
       0.0 0.0 0.0 0.0
0001c0 00 00 00 00 00 00 00 00 00 00 00 00 00 00 00 00
       0.0 0.0 0.0 0.0
0001d0 00 00 00 00 00 00 00 00 00 00 00 00 00 00 00 00
       0.0 0.0 0.0 0.0
0001e0 00 00 00 00 00 00 00 00 00 00 00 00 00 00 00 00
       0.0 0.0 0.0 0.0
0001f0 00 00 00 00 00 00 00 00 00 00 00 00 00 00 00 00
       0.0 0.0 0.0 0.0

action_model._discrete_distribution.branches.0.weight f4 [3, 128]
000000 b2 d2 3c 3b 6a 9d 60 bb 8f 1d 37 ba af 95 ba bb
       0.0028812108 -0.0034273514 -0.00069853006 -0.005694113
000010 c8 32 fd ba 39 73 2d 3c 43 4e 3b bb 1c e3 8b bb
       -0.0019317502 0.010586553 -0.0028580583 -0.004269017
000020 6b b9 49 bc 64 60 12 3c a5 6c ba 3a e9 bc 0c bc
       -0.0123122735 0.008934114 0.0014223052 -0.008589962
000030 43 e7 78 bc 8e c5 95 3a 7f bb d6 3a e3 7a 97 bb
       -0.015191856 0.0011426674 0.0016382782 -0.0046228035
000040 79 fe 8d 3b af 51 89 bc 02 aa 48 3b 04 6c 3e ba
       0.004333314 -0.016762583 0.003061891 -0.00072640204
000050 70 9c a7 bb 0a 5e 69 3b 5e 67 91 3c 1f ba 05 bc
       -0.0051150844 0.003560903 0.017749485 -0.0081620505
000060 41 73 96 bc ff 53 4f 3b 87 36 69 bc 7f 30 04 3c
       -0.018365504 0.003163576 -0.014234192 0.008068203
000070 33 db 8a 3c 32 b1 e3 3a c0 e6 ca 3b 1b 11 c3 37
       0.016950225 0.0017371534 0.0061920583 2.3253777e-05
000080 6b df a9 bc 9f 98 ff bb 45 72 e8 bb ab fa a8 3b
       -0.020736417 -0.0078001763 -0.0070937 0.005156835
000090 5e e0 2f 3a 07 e8 74 3c 69 78 41 3a d5 4f 92 bb
       0.00067091535 0.014947898 0.0007380308 -0.004465083
0000a0 2d ce ec bb 3b e5 eb 39 94 87 19 3c 7f ab 58 3a
       -0.0072267265 0.00044993483 0.009370703 0.0008265301
0000b0 1a 3f 06 3c 52 a1 70 bc b7 1f 54 3b 46 f1 16 3b
       0.0081937555 -0.014686899 0.0032367536 0.0023031994
0000c0 b7 9a 24 bc 32 3d 53 ba 2a f9 de bb 4a 0d 53 bc
       -0.0100466525 -0.000805813 -0.006804605 -0.012881586
0000d0 33 1f b3 3b d5 02 9c 3a b8 fa 56 3b 69 00 17 3c
       0.0054663657 0.00119027 0.0032803249 0.009216406
0000e0 ea 37 92 3b bf 8c 9c ba d1 98 b8 ba c2 37 84 3b
       0.004462232 -0.0011943801 -0.0014083629 0.004034967
0000f0 9f 22 e4 bb 5f c6 bd 39 af ae 2c 3a bf 56 13 3c
       -0.006962135 0.00036196687 0.0006587309 0.00899285
000100 12 66 ad 3b ed 58 4e 3b f0 47 98 3b c8 36 f4 bb
       0.0052917087 0.003148611 0.0046472475 -0.0074528195
000110 5d a8 35 bc 73 1a 1a bc 0c b2 17 bc 78 94 28 bc
       -0.011087504 -0.00940572 -0.009258758 -0.010289304
000120 e5 7f a6 bb 68 61 05 bc e3 c3 f0 bb 9f a6 3f b9
       -0.005081164 -0.008140899 -0.0073475703 -0.0001827725
000130 ef bb 50 bb 37 ee ea ba f7 b5 9f 3b 92 f6 b9 bb
       -0.0031850298 -0.0017923777 0.004873987 -0.0056751454
000140 1d 8d f0 bb 03 6f 7a bb c3 ac 6d bc fa 23 6c 3b
       -0.0073410408 -0.003821314 -0.014506522 0.0036032186
000150 42 03 d4 3b b6 4b 14 bb 96 88 30 bb 8f 62 c6 3b
       0.006470115 -0.0022628135 -0.002693688 0.0060542296
000160 a2 c2 7d 3b 91 dc 94 ba 90 26 d2 3b 46 92 03 3b
       0.0038720747 -0.0011357238 0.0064132884 0.00200762
000170 50 aa 5b 3c 43 e7 b7 bb 87 61 9c bb 1c 25 4c 3a
       0.013407305 -0.0056122853 -0.0047723684 0.0007787512
000180 2c 30 34 3c 87 99 1e bb 57 41 c5 3b 2a 81 7c bb
       0.010997813 -0.0024200396 0.006019752 -0.0038529136
000190 8c 88 ae ba bc 57 8a 3a 00 81 93 bb 7d 9a 8e 3a
       -0.0013315841 0.0010554711 -0.004501462 0.0010879781
0001a0 4b a6 07 bc f3 08 67 bb 8b 4a a7 bc 86 29 09 bb
       -0.008279393 -0.0035253137 -0.020421287 -0.002092929
0001b0 ca 65 4c 3c b9 07 3d 3c af 33 bd 3b 77 a6 13 3c
       0.01247544 0.011537486 0.0057739834 0.009011856
0001c0 2a cc 20 3c 84 8f 89 3c 3d fb 4b 3b 2b 2c 33 3b
       0.0098143015 0.016792066 0.0031125091 0.0027339559
0001d0 c7 3a 4b ba e2 d4 9c ba a7 8d 32 3b 92 b1 99 39
       -0.0007752594 -0.00119653 0.0027245076 0.00029314734
0001e0 ba 58 6b 3c f0 68 32 3b e7 cc ea bb 02 1f 20 bc
       0.014364416 0.0027223192 -0.0071655395 -0.009773018
0001f0 cb 9b 2b 3b da 9a d8 3b bb fb 18 bc a9 e3 11 3c
       0.002618539 0.0066102566 -0.009337361 0.008904376
000200 ed 1c 8b 3c 74 ff 8a bb 4b 62 58 bb a3 e7 45 bb
       0.016981566 -0.004241878 -0.0033017572 -0.003019788
000210 cb 81 f7 3a 2d 0b c0 3b 38 14 2b bc ef 7a cb ba
       0.0018883286 0.0058607073 -0.010441832 -0.0015524308
000220 df 0d 67 bc d2 fe 4c 3c eb cf 3b ba a5 16 80 39
       -0.014102428 0.012511926 -0.0007164466 0.00024430934
000230 84 fd 83 bb 53 b9 1e 3a 6b b1 ad bc 9d 65 87 bb
       -0.004028024 0.0006054837 -0.021202764 -0.0041319863
000240 35 c3 86 3c 5f 31 ea 3b 32 cc e2 3a be 9b 23 bb
       0.016450504 0.007146999 0.0017303287 -0.0024964656
000250 c2 c1 7f bb 7f 9d 2d bb 6b 90 98 3c e6 1b c1 3b
       -0.00390254 -0.002649158 0.018623551 0.0058932183
000260 cf 43 29 3c e1 60 48 bc 61 31 96 3b 0f 57 18 3a
       0.010331108 -0.012230129 0.004583523 0.00058113126
000270 65 92 de 3b d2 95 00 3c b8 ea 44 3b 10 0d 87 bb
       0.006792354 0.00784822 0.003004713 -0.00412143
000280 41 50 34 3c 23 2d 0f 3a 58 6f de 3a 67 fb f4 3b
       0.011005462 0.0005461743 0.0016970439 0.0074762586
000290 7b fb 20 bc 0c 02 01 bc 70 49 30 b9 f1 48 38 3c
       -0.009825583 -0.007874023 -0.00016812026 0.011247859
0002a0 b3 b1 1b bc 22 74 7d 3a ef 74 5f 3b ff 65 55 3c
       -0.009502816 0.0009668489 0.0034096797 0.013024806
0002b0 af cf 34 3b 26 2c 0c 3b 22 89 bc ba f0 6b 71 bb
       0.002758961 0.002138862 -0.001438413 -0.0036838017
0002c0 de 57 b2 3b 65 42 4f 3c ea 7f d9 3a a3 81 8c bb
       0.0054426035 0.012650107 0.0016593907 -0.004287915
0002d0 1b a3 0b 3c 6f be cc 3b 0b 52 4b bc 05 b0 e9 3b
       0.008522774 0.0062482874 -0.012409697 0.007131579
0002e0 e2 0b c2 3b 94 cb 85 bc 9b 57 a2 3b cd 68 26 bc
       0.0059218267 -0.016332425 0.004954291 -0.010156822
0002f0 8e 33 b0 ba 9b ea 4b 3c e1 46 1e 3c 2c 16 31 bc
       -0.0013443099 0.012446071 0.009660454 -0.010808509
000300 2e 23 2b bc 8f 62 85 bc 1f 9d 38 3c fa db 3c 3c
       -0.010445399 -0.016282348 0.011267929 0.011527056
000310 42 bd 2b bc 15 0f e1 bb 86 d3 a1 3b 47 43 78 3c
       -0.010482134 -0.006868253 0.0049385456 0.015152759
000320 9f 96 c7 3a 5b 33 4f 3b 2f bf 88 3b d8 61 67 3b
       0.0015227384 0.0031616304 0.0041731815 0.0035306122
000330 df a0 82 3b 04 57 b8 39 37 60 86 bb 3b 1f 67 3c
       0.0039864625 0.00035160047 -0.004100825 0.014106567
000340 1f f0 17 3c 9b 57 a9 bb 49 89 9c 3a 4f 79 b8 bb
       0.009273558 -0.005167914 0.001194277 -0.0056296955
000350 a8 6a d9 bb 07 ff 42 bc fe f7 44 bc 2f c9 45 3c
       -0.006635029 -0.011901624 -0.012022017 0.012071892
000360 aa 81 39 3c 23 d9 0c 3c 45 6b 5d 3c 4f e6 92 bc
       0.011322418 0.008596691 0.013514345 -0.017932085
000370 c7 41 85 3a 20 4f 7b 3c da 1f 40 bc 27 79 34 3c
       0.0010166698 0.015338689 -0.011726344 0.011015213
000380 8a 37 11 bb ad bd 9d bb df dd eb b9 8d 7a 59 3c
       -0.0022158348 -0.004813871 -0.00044988 0.013273847
000390 f4 19 43 ba f5 ed 34 bc da 83 3e ba 63 df b7 3b
       -0.0007442527 -0.0110430615 -0.0007267572 0.0056113466
0003a0 03 28 fe 3b be 9c 91 bb 6f 75 bf 3b 4b dc b0 3b
       0.0077562346 -0.004443734 0.0058428566 0.0053973547
0003b0 25 1c 4d 3c 0e 20 9b 38 33 0b ac bb e3 6a a5 3b
       0.012518917 7.3969466e-05 -0.0052503585 0.0050481423
0003c0 f8 da d6 b9 fa 9c 8e 3c a4 59 cc bb a3 2e 86 3b
       -0.00040980405 0.017408837 -0.006236272 0.004094915
0003d0 69 a0 9c bc 94 3e 95 3b 82 dd ee bb 87 73 a2 bb
       -0.019119458 0.004554579 -0.0072895894 -0.0049576196
0003e0 f3 dc ea 3b 9d d5 39 3c d2 c3 d4 39 7b 9c fb b9
       0.0071674525 0.011342433 0.00040581689 -0.00047991038
0003f0 50 2f c0 3b 85 2a 4b 3b 88 1b f1 bb 17 9a 67 3c
       0.005865015 0.0031000685 -0.0073580183 0.014135859

action_model._discrete_distribution.branches.0.bias f4 [3]
000000 00 00 00 00 00 00 00 00 00 00 00 00
       0.0 0.0 0.0

action_model._discrete_distribution.branches.1.weight f4 [3, 128]
000000 ad ec 17 bc b7 60 4f 3c a7 4b dc bb 99 a5 22 bc
       -0.0092727365 0.012657336 -0.0067228856 -0.009927177
000010 5b ae e6 3b 5f ee b5 bc 9a 58 2c 3c 15 0a 56 3c
       0.0070398278 -0.02220839 0.010519171 0.013063927
000020 6a c6 69 3b b2 42 00 3a d2 fe a9 bb 77 e7 19 3c
       0.0035671243 0.0004892751 -0.0051878477 0.009393564
000030 8f 16 58 3a a4 08 22 3b 43 2d a0 3b 84 3b 07 bc
       0.00082431076 0.0024724388 0.004888208 -0.008253936
000040 cc ab 1e bb fb 29 97 bc cb 89 d5 bb 27 75 53 bb
       -0.0024211286 -0.018452635 -0.0065166703 -0.0032265873
000050 dd 75 34 3c 34 fb 37 bc f5 b7 b2 bb 94 cc b7 3b
       0.011014429 -0.011229325 -0.0054540583 0.0056091044
000060 37 c0 4b bc 8e 73 8d bb e5 83 65 3c 9b 8d d7 ba
       -0.012435964 -0.0043167537 0.014008497 -0.00164454
000070 46 1f a4 bb 63 0b 84 bc dd 75 dd ba 1f 7d a7 bb
       -0.005008611 -0.01611871 -0.0016896088 -0.005111351
000080 6f 2b 9d bb 9f b7 04 bc 15 4a 63 3c 84 5f ab bb
       -0.0047964375 -0.008100419 0.013872643 -0.005229892
000090 e3 35 4d 3c df 2c d0 3b ef 0a 6c bb 13 1d 4b 3b
       0.012525055 0.0063530053 -0.003601726 0.0030992671
0000a0 52 01 72 3b b2 e0 b9 3b 93 a8 04 3b f0 e8 c6 b9
       0.0036927056 0.0056725377 0.002024208 -0.00037939055
0000b0 ee bc 1b 3b 87 e7 c7 bb 8f 5b 65 bc 0a fb 58 3b
       0.0023763734 -0.0061005983 -0.01399888 0.0033108615
0000c0 6b 65 0a 3c 7f a6 1b bc bb 4f 93 3b 02 d9 fc bb
       0.0084470315 -0.009500145 0.0044955886 -0.007716299
0000d0 5a 60 91 3b 83 d9 37 bb f0 45 33 3c cf dc ad 3a
       0.004436535 -0.002805323 0.010941967 0.0013264659
0000e0 df 35 b8 3b 9b 62 88 bb a2 46 48 ba 2f 37 b9 bc
       0.0056216563 -0.0041621453 -0.00076399196 -0.022609321
0000f0 4b a8 c5 3a 77 84 2c 3a 1d 30 64 3b ed 4d 41 bc
       0.0015080062 0.0006581018 0.0034818717 -0.011798364
000100 4d 6a 62 3c a1 a9 40 3b 88 4f f8 ba 69 f3 9a 3b
       0.013819289 0.0029397982 -0.0018944601 0.004728724
000110 4a 15 73 3c d6 26 1e bc 82 48 ec 3b a4 57 9c 3b
       0.014836619 -0.009652814 0.007210792 0.0047711898
000120 bf 1b 5d 3c 4d e6 1c bc b2 28 cf 3b 1b 26 94 3b
       0.013495385 -0.009576392 0.00632199 0.004521144
000130 51 d5 47 3c 0f af 18 3b af 77 ef ba fb 98 90 3b
       0.012196855 0.0023297702 -0.0018269921 0.004412768
000140 ef 69 19 bc 10 1b 53 3c 45 3a f0 bb 6c c3 0f bc
       -0.009363635 0.01288487 -0.007331165 -0.00877462
000150 2d 95 68 bc d7 d0 71 bc 05 fc e6 bb b7 0a c2 3b
       -0.0141957225 -0.014759264 -0.007049086 0.0059216875
000160 da 33 41 3c f5 b3 6f bc dd 5c 11 3b 02 f8 fe bb
       0.0117921475 -0.014630307 0.0022180595 -0.0077810297
000170 74 dc 87 bb 57 85 a5 bb 2a a4 a2 bb d0 5c de 3b
       -0.004146153 -0.0050512957 -0.0049634175 0.0067859665
000180 53 42 6c 3c fb a2 18 bc 7a d2 cb bb 53 62 3d bc
       0.01442011 -0.009316201 -0.006220159 -0.011559087
000190 25 6b 90 3c 33 e8 c8 ba 02 79 48 3c f3 59 f2 ba
       0.017629215 -0.001532799 0.012235882 -0.0018489942
0001a0 b1 43 1b 3b ca e9 2a 3c 33 d3 e9 3b 32 14 e2 bb
       0.002369147 0.010431716 0.0071357726 -0.00689938
0001b0 03 4b b5 bc 41 39 87 b9 8d 12 9d 3a e4 b0 b2 bc
       -0.022130495 -0.00025791864 0.0011983678 -0.021812864
0001c0 fb a8 42 bb a7 de 3a bb a7 43 54 3c 4f f3 86 bb
       -0.002970277 -0.0028514059 0.012955583 -0.00411836
0001d0 83 19 11 3b 33 07 7d 39 81 d0 04 bb 32 cf 66 3c
       0.002214045 0.00024130642 -0.002026588 0.014087485
0001e0 3b 61 e4 3b 07 c4 99 3b e7 43 00 bb 78 c9 ec b9
       0.0069695986 0.0046925577 -0.0019571723 -0.00045163534
0001f0 cf 65 a2 3b 97 63 bb 3b 6f 43 bb 3a af a8 a1 bb
       0.004955984 0.005718659 0.0014287065 -0.0049334387
000200 42 bb 54 bc 9e 9b 17 bc 6d ba b0 bb 30 5a 42 3b
       -0.012984099 -0.009253411 -0.0053933174 0.0029655807
000210 35 e1 02 3c 24 5d 97 3b df b0 c5 bb d5 23 6e bb
       0.007988264 0.0046192575 -0.0060330476 -0.0036337276
000220 ec 52 98 bc ae f3 af 3b 4e 8a 3e bb 70 c3 d9 bb
       -0.018594228 0.005369625 -0.0029074135 -0.0066456124
000230 55 8c 07 bc 81 61 27 3c 0d c1 c4 b9 08 a4 7c bb
       -0.008273204 0.010216118 -0.00037527867 -0.0038549919
000240 df f9 73 bb 1a 8d 7a 3b 16 e1 8b 39 db 75 3b bb
       -0.0037227792 0.0038231076 0.00026679848 -0.0028604183
000250 fa 86 97 bb 27 e3 01 ba 0b 27 68 3b 7b 25 bc 3b
       -0.0046242448 -0.0004954808 0.0035423662 0.0057417727
000260 3e f9 96 b8 2b 19 5b bb 31 f2 0c bc aa ee eb b8
       -7.198982e-05 -0.003343175 -0.008602665 -0.00011250128
000270 17 39 29 3c 3a 3d 3b 3a 5f df a2 3b 9a 72 89 bc
       0.010328553 0.00071426074 0.0049704756 -0.01677828
000280 f2 a8 22 bc 5c fb 0c 3c 82 2c 6e 3c bf 27 3d 3c
       -0.009927975 0.008604851 0.014536979 0.011545121
000290 1f 59 65 3c db be 24 bb 43 72 bd 3b 2b 63 54 bc
       0.013998299 -0.0025138173 0.0057814433 -0.012963097
0002a0 4d ce 06 bc 4b f6 46 bc 4a a4 25 3b 77 ad fb 3b
       -0.008227897 -0.012143682 0.0025274926 0.0076805907
0002b0 bd 73 de bb c3 6c b4 bc 22 d9 b8 ba 85 ec f1 3b
       -0.0067886994 -0.022024518 -0.0014102797 0.0073829317
0002c0 6f ae 61 3c db 76 69 3c 16 20 3f 39 9a 0e 8a bb
       0.013774498 0.014249529 0.00018227132 -0.0042131664
0002d0 26 58 2f bc 50 82 e2 bb 57 f2 8e ba 1b 65 8c 3b
       -0.010702169 -0.006912507 -0.0010905963 0.0042845136
0002e0 af 1f ad 3a 9f a1 05 3c 58 14 77 bc 0c 2c 08 bc
       0.0013208295 0.008156209 -0.015080534 -0.008311283
0002f0 33 8a 1e bc a8 91 7f bc b4 be 34 bb 67 2c fd b9
       -0.009676504 -0.015598692 -0.0027579488 -0.00048289003
000300 db 64 50 3c 3f 10 8e 3b 9c d0 0e bc e3 c4 86 3c
       0.012719358 0.004335433 -0.008716729 0.016451305
000310 8b 71 7d 3c 4f 04 78 3c 60 a5 50 bc 5e 07 a6 ba
       0.015468965 0.015137746 -0.012734741 -0.001266699
000320 5e e5 a1 3b 44 50 af 3b 50 c3 0d b9 9b a2 c0 3a
       0.004940673 0.0053501446 -0.00013519567 0.0014696898
000330 3c a6 8e bb 35 77 e6 3a bb db 9d ba 5a ea a8 3a
       -0.004353313 0.0017583134 -0.0012043634 0.0012887225
000340 e8 fe f2 ba 83 a1 ca 3a d0 6d 05 3c 45 29 95 ba
       -0.0018539103 0.0015459511 0.008143857 -0.0011380097
000350 5b ac 96 3b 52 c5 5c 3b bb 53 90 bb 00 5e 78 bc
       0.004598183 0.0033686948 -0.0044045127 -0.01515913
000360 3d d7 26 bc 65 ab d1 3b 36 e1 99 bb 9f 34 1e 3c
       -0.010183153 0.0063986056 -0.0046960367 0.0096561005
000370 bf 09 62 ba 0a 1a 2a bb fd cc cf ba 2f d8 01 bc
       -0.0008622668 -0.0025955462 -0.0015853938 -0.007925077
000380 35 bf e6 39 75 95 66 3c 05 7c 14 bc de 02 89 ba
       0.0004401148 0.014073719 -0.009062772 -0.0010453125
000390 af f9 c0 3b cf 1d 04 3c ea 5b 36 bb b2 64 06 3c
       0.0058891396 0.008063748 -0.002782578 0.008202719
0003a0 2f 79 b5 3c aa 8a 24 3c 92 a4 1d bc 2c 10 b9 ba
       0.022152511 0.010042826 -0.009621756 -0.00141192
0003b0 b4 37 93 3a 4f 78 ed 3b 8f 27 bd ba 2b 4b 32 3a
       0.0011231811 0.007247008 -0.0014431345 0.0006801362
0003c0 99 26 10 bc 43 f6 61 3c bb 8b 46 bc e0 01 8f bb
       -0.008798265 0.0137916235 -0.012118275 -0.004364237
0003d0 43 4f 34 bc af bd 27 3c b1 a0 a4 ba ef f2 10 3c
       -0.011005226 0.010238095 -0.0012560097 0.008846982
0003e0 f0 6a 27 3b 6a a4 b4 ba a9 47 c7 3b e5 2f 13 3c
       0.0025545917 -0.0013781909 0.0060815406 0.008983587
0003f0 2f c0 92 3a af 3a 34 bb 52 ca 9b bc 0d a0 b8 ba
       0.0011196191 -0.0027500798 -0.019017372 -0.0014085785

action_model._discrete_distribution.branches.1.bias f4 [3]
000000 00 00 00 00 00 00 00 00 00 00 00 00
       0.0 0.0 0.0

action_model._discrete_distribution.branches.2.weight f4 [3, 128]
000000 60 cf 58 3a 17 ae b2 3b f3 54 f7 bb 9f 45 4a bb
       0.00082706474 0.005452882 -0.0075479685 -0.0030864251
000010 4e 8d 4a ba 7a 63 17 3a eb d2 a6 3c 7e e9 15 bc
       -0.00077267445 0.0005775016 0.020364245 -0.009149907
000020 d7 0b 55 bb 92 24 47 3c c4 e0 25 3c 7b 92 3b 3a
       -0.0032508278 0.012154715 0.010124389 0.0007155311
000030 33 86 9a 3c c7 67 12 bb f8 0b 85 3b c2 78 dc 3b
       0.01886282 -0.0022339688 0.0040602647 0.0067282626
000040 a2 18 e4 3b 7a 46 90 bb e3 85 e9 3b 2b fb 92 bc
       0.0069609443 -0.0044029327 0.0071265562 -0.017942032
000050 52 13 91 3b 20 f8 d5 bb f1 c2 bd bc 52 96 d7 b9
       0.004427352 -0.006529823 -0.023164244 -0.00041119993
000060 bb 6e d7 3b d0 0b 4e bc a5 a0 6c bb d7 7f a0 bc
       0.0065744794 -0.0125760585 -0.0036106494 -0.019592209
000070 d3 02 e9 b9 64 ab 2d 3b db 62 4a 3c e2 dd 99 ba
       -0.00044443327 0.0026499862 0.012352671 -0.00117391
000080 d2 75 12 bc c7 39 30 39 90 3e fa bb c3 33 f4 3b
       -0.008939223 0.00016806192 -0.0076368526 0.0074524595
000090 4a 07 d6 3b f2 f5 1f bb f3 de 7d 3c ad d8 50 ba
       0.0065316306 -0.002440807 0.01549505 -0.00079668575
0000a0 d1 95 a8 bb e5 51 28 bb fb 68 59 bb 55 f1 ec 3b
       -0.0051448126 -0.0025683579 -0.0033174146 0.0072309175
0000b0 95 d9 82 ba de d3 3a 3a 0a 59 9e 3a 8f f3 08 bc
       -0.0009983057 0.00071269076 0.0012080979 -0.00835885
0000c0 2d 69 e5 bb 03 7a af 3b 12 54 4e bb a6 fe 1b 39
       -0.0070010633 0.005355121 -0.0031483215 0.00014876816
0000d0 73 18 36 bc a1 8b 48 3c 97 fa bd ba f5 7b 0d 3c
       -0.011114228 0.012240321 -0.0014494237 0.008635511
0000e0 da 52 9f 3c 98 1f 8c bb d7 6a 79 3c 41 bd bd bb
       0.019448686 -0.004276227 0.0152232265 -0.005790383
0000f0 fc 9f a2 bb ce c1 09 3b 16 ae 97 bb ca b9 e7 bb
       -0.0049629193 0.0021020058 -0.004628907 -0.0070717083
000100 90 c0 f0 ba d5 3d 52 3c 54 ed 0d bb fe ef 08 3b
       -0.0018367935 0.012832125 -0.002165635 0.0020895
000110 c4 53 ab bb a2 c9 89 3b 0a 72 b5 3a 1d 16 17 bc
       -0.0052284915 0.0042049447 0.001384319 -0.009221581
000120 5f b7 c1 b9 3b 05 20 3c c7 04 db 3b 3b 09 90 39
       -0.0003694845 0.009766872 0.006683919 0.00027472698
000130 f8 10 12 bc ec c3 18 bc 03 90 2c b9 b1 99 c4 39
       -0.0089151785 -0.009324055 -0.00016456847 0.00037498542
000140 85 d6 fc bb bb 50 8d bc 6a 05 3f 3b 1d 21 a2 3a
       -0.0077160024 -0.01725041 0.0029147514 0.0012369488
000150 3b c6 48 bc ef 45 e0 bb 90 4d 0e 3c f8 83 8a ba
       -0.012254293 -0.0068442742 0.0086854845 -0.0010567894
000160 f1 b6 0f bc d4 e9 18 bb f1 97 82 3c 39 75 2f bc
       -0.008771644 -0.0023332732 0.015941592 -0.0107091
000170 10 78 ea bb 64 fd a2 3b 37 b2 3d bb e7 87 0a 3c
       -0.007155426 0.004974054 -0.0028945336 0.008455253
000180 c2 85 79 3c 8d da 55 3c e3 57 05 bc 47 8d 82 3b
       0.015229644 0.013052595 -0.00813863 0.0039841267
000190 73 82 52 3c 30 d1 e5 3b 98 90 72 3b c1 6e 9c 3b
       0.012848484 0.0070134625 0.0037012454 0.004773945
0001a0 1f 28 e8 3a af b8 b7 3b 1c c3 c3 bb 3d 3d e3 3b
       0.0017712152 0.005606733 -0.0059741866 0.0069347904
0001b0 fb cf 52 3a 33 9a 16 3c d5 b5 d3 3a 54 65 83 ba
       0.0008041856 0.009192037 0.0016152213 -0.0010024705
0001c0 5a 8e 71 3c 1e 0f 0e bc 14 36 92 3b 75 07 cd ba
       0.014743412 -0.008670596 0.004462013 -0.0015642481
0001d0 dc c5 31 bb 23 5c 9d bb b4 e5 1b bc 13 72 61 3b
       -0.002712599 -0.0048022433 -0.009515215 0.003440027
0001e0 b5 2c 20 bc 55 9d 6b bb 40 6d 01 bc 37 af 20 3b
       -0.009776284 -0.0035951931 -0.007899582 0.0024518499
0001f0 49 96 04 3a 5d 2a 9c bc 25 25 a0 bc c2 ef 6e 3c
       0.00050577946 -0.01906317 -0.019548962 0.01458353
000200 ca 61 94 ba 62 bc d3 3b 10 94 0f 3c 4b e3 56 bc
       -0.0011320647 0.006461666 0.008763328 -0.013115714
000210 7c 82 98 ba 37 60 33 bc e7 54 e3 3b 10 9b 64 bc
       -0.0011635567 -0.010948232 0.0069376114 -0.013952985
000220 ca c9 f0 3b 26 d5 42 3c 82 49 a7 3c 3c c1 8f bc
       0.007348274 0.011891639 0.020420793 -0.017548196
000230 67 eb 66 bc 10 ad 4a 3c a8 2c 08 3c df 2e 75 3a
       -0.01409421 0.012370363 0.008311428 0.00093529926
000240 22 9b 88 b9 6f 86 4f bb 11 2e 90 bb 7f 06 c1 bb
       -0.00026055524 -0.0031665822 -0.004400023 -0.005890667
000250 13 d0 2e 3c 6f 90 20 3c 3f 18 1c bb 20 8a 03 3c
       0.010669726 0.009800061 -0.0023818163 0.008028537
000260 21 b9 0a 3c 35 62 7e 3c 7f 40 2b 3b 9c a6 bc 39
       0.00846699 0.015526344 0.0026130972 0.00035982288
000270 55 56 de 3b 70 ab 5d bb ed 2f 9d 3c cc e5 01 bc
       0.006785194 -0.0033824109 0.019187892 -0.007928323
000280 ff 17 17 3b 88 60 00 3b 72 5b 61 bc b7 1b 2b 3c
       0.0023055074 0.0019588787 -0.013754712 0.010443619
000290 bf 1e 22 bc 6e 86 ab 39 aa fd 77 3b 78 b3 d9 bb
       -0.009895026 0.0003271582 0.0037840405 -0.006643709
0002a0 82 5f 72 bb cf 7a 5c 3c 62 61 21 3b d1 eb a0 3b
       -0.0036983197 0.013457014 0.0024624695 0.004910924
0002b0 5f 87 9d bb 3a 98 a7 3c b5 08 dd 3b ab 06 ad bc
       -0.0048073973 0.02045833 0.0067454227 -0.021121344
0002c0 15 5b 05 3b dd 13 09 3b c2 2b d8 3b 3f cf 15 3c
       0.0020348479 0.002091638 0.006597013 0.00914365
0002d0 87 cd ac bb db b3 d3 3a 2f 09 d0 bb 45 19 bd ba
       -0.005273524 0.0016151624 -0.006348751 -0.0014427087
0002e0 24 7e 3c 3c 1b 3d 4c 3c cf 36 bf 3a d6 0a 8f b7
       0.011504684 0.012465741 0.0014588478 -1.7051974e-05
0002f0 c0 7b 3c bc f8 a3 a4 ba 9b f6 c1 bb e3 aa 32 bc
       -0.011504114 -0.0012561074 -0.0059192902 -0.010905
000300 7a 97 e3 ba 25 fc 50 bc 72 3c 1a 3b 8a 93 56 3a
       -0.0017363869 -0.012755428 0.0023534563 0.0008185437
000310 37 b4 a9 3b d7 11 5c bc ff 2f 3a 3b f3 ea ca bb
       0.005178954 -0.013431988 0.0028409956 -0.006192559
000320 55 b8 ff bb e9 c5 01 3c a9 d3 98 3c 53 fe a4 3a
       -0.0078039565 0.007920721 0.018655615 0.0012588002
000330 43 93 51 bb 93 94 20 3b 90 81 a7 39 72 7d 22 bc
       -0.0031978644 0.002450262 0.00031949254 -0.009917604
000340 4b 0b 88 bb e3 0e 69 3b fc 1c a6 3b 22 6b 0a 3c
       -0.004151737 0.0035561852 0.005069373 0.008448394
000350 19 de 40 bc 69 fb 12 3c 28 be ae bb d4 29 05 3b
       -0.011771702 0.008971074 -0.005332727 0.002031912
000360 d4 74 39 3c af da d7 3b f9 91 30 3b b3 0b 1a bb
       0.011319358 0.0065873484 0.0026942475 -0.0023505508
000370 45 ac 4a bb 7b 01 0d 3c 00 10 9c 3a fd 82 44 3c
       -0.0030925435 0.00860631 0.0011906624 0.011994121
000380 13 ef bf bb 57 2e db ba 89 c4 83 3b 3e f4 94 bc
       -0.0058573573 -0.0016722184 0.0040212316 -0.01818287
000390 b5 9b 8a 3c 83 b1 c6 3b b7 8f 3d 3c c8 11 89 bb
       0.01691995 0.0060636415 0.011569909 -0.004183028
0003a0 de 9b 97 b9 ab a4 98 bb 29 fd 9c bb e0 26 19 3c
       -0.00028917094 -0.004658302 -0.004790921 0.009347647
0003b0 c6 d6 a2 3c 6f c3 5b 3b 82 42 64 3b 7b c7 96 3a
       0.019877803 0.0033533236 0.003482968 0.0011503542
0003c0 22 b0 49 3b bb 91 99 3c 08 84 29 bb e2 58 28 3c
       0.003077515 0.018746248 -0.002586605 0.010275098
0003d0 a5 5d 0c 3c ca 94 68 3c 03 f8 24 bc 28 71 f5 ba
       0.0085672485 0.01419563 -0.010068896 -0.001872574
0003e0 2d 18 1d 3c 24 d6 31 3c 14 d3 28 3c 95 ce 13 3b
       0.0095882835 0.010854278 0.010304231 0.0022553552
0003f0 18 64 12 ba 06 37 2f bc 53 7c fc 39 b8 0f df 3c
       -0.0005584373 -0.010694271 0.00048157814 0.027229175

action_model._discrete_distribution.branches.2.bias f4 [3]
000000 00 00 00 00 00 00 00 00 00 00 00 00
       0.0 0.0 0.0

critic.network_body.linear_encoder.seq_layers.0.weight f4 [128, 22]
000000 65 3d eb 3d 7d 2c e8 bc 13 c4 f8 be 93 e5 d6 be
       0.114863195 -0.028341526 -0.48587093 -0.41972026
000010 be 0b 70 3d 20 88 f9 3d b2 89 50 3e a2 7f 37 3e
       0.05860495 0.12184167 0.20365027 0.17919782
000020 c6 4b db 3d fa 95 66 be cd 1a 14 be 1c c6 d7 bc
       0.10707812 -0.22518149 -0.14463349 -0.026339583
000030 d4 5e 5a 3e 63 82 e4 be 17 88 d6 be 99 8f 6b bb
       0.21325237 -0.44630727 -0.41900703 -0.0035943745
000040 17 4f 31 bd 53 47 44 3e 62 7c d1 be 79 6b 63 be
       -0.043288317 0.19167833 -0.4091521 -0.22208966
000050 01 65 1a 3e 58 70 c7 bd d2 0b 90 3d df 17 62 bd
       0.15077592 -0.09738225 0.070335045 -0.055198546
000060 d9 a6 09 be 2d 2e d4 be 88 af 1c be 6e 34 31 bd
       -0.13442554 -0.4144148 -0.15301335 -0.04326289
000070 e0 c0 17 bd 99 90 81 be fb 37 2f 3c 3f 64 1d be
       -0.037049174 -0.25305632 0.010694499 -0.15370272
000080 ec 10 f4 bb 7a 9b c7 bd 62 f9 de 3d a6 97 8a be
       -0.0074483063 -0.09746452 0.1088741 -0.27068824
000090 98 9c b5 3d 08 47 13 3c c5 de 2d bc 9f f8 53 3d
       0.088677585 0.008989103 -0.010612194 0.051750775
0000a0 ef ef 11 be e5 75 f0 3d be 4e a4 3e d9 c1 36 bc
       -0.14251684 0.117412366 0.32091326 -0.011154615
0000b0 0e 7b 9e be b2 37 43 bc c3 b5 8c 3c d4 99 30 3e
       -0.30953258 -0.011915134 0.017176514 0.17246181
0000c0 11 9a 91 be 3b 10 3a be 09 50 14 bc 92 52 9a bd
       -0.28437856 -0.18170254 -0.009052285 -0.0753528
0000d0 74 f9 79 3e 19 7f ab be f5 cc fa 3d 87 61 9f 3d
       0.24411565 -0.33495405 0.12246124 0.07782274
0000e0 6d a3 75 be f2 00 a1 bd 1d 8e 0b bd 34 3d ae bd
       -0.23988123 -0.078615084 -0.034071077 -0.08507767
0000f0 4c a3 2c 3e 07 a7 b2 3d 67 d2 3e be fa 14 35 3e
       0.16859168 0.08723264 -0.1863495 0.17683783
000100 ca 01 2d be d9 cf 29 3e 08 45 e4 bd e9 aa e9 bd
       -0.16895214 0.16583194 -0.11145979 -0.11409552
000110 e5 e3 84 3d c3 25 22 bd 62 82 97 3d 31 f6 c2 bd
       0.0648878 -0.039586794 0.073979154 -0.095196135
000120 df c9 17 be ed c7 92 3e 59 5b 98 3e 33 61 14 bd
       -0.14823101 0.28668156 0.29757193 -0.03622551
000130 01 fb 85 bd cc c6 62 bd 83 10 75 be 9e 42 15 3e
       -0.06542016 -0.05536537 -0.2393208 0.14576194
000140 20 46 e7 3d 81 f8 61 bb 26 ab 10 bd cd 40 87 be
       0.11292672 -0.0034480395 -0.03531947 -0.26416627
000150 01 06 40 3e fd 5d 53 3d 75 32 99 3e ae 29 fa bc
       0.1875229 0.051603306 0.29921308 -0.030537453
000160 b0 2d 1e 3e 4c 10 92 bd 04 26 6b be 03 88 de be
       0.15447116 -0.07132015 -0.2296372 -0.43463144
000170 b5 b4 46 bd 5f 4d 63 bd b8 f1 89 be 2c 57 59 3c
       -0.04851218 -0.05549371 -0.2694223 0.013265412
000180 bb d9 6c be 05 11 8e bd dd 9a 76 3d 4a 91 8b be
       -0.23129933 -0.0693684 0.060206283 -0.27259284
000190 de ec 86 be 24 08 53 3e 5a 04 f5 bd 77 eb cd bd
       -0.2635259 0.20608574 -0.119637206 -0.10054677
0001a0 0f 94 09 3e 86 66 f6 bd 0d 79 3f be c6 82 4d be
       0.13435386 -0.120312735 -0.18698521 -0.20069417
0001b0 68 30 dc 3b d1 ea 8e 3e fd 10 1b be 36 4c c4 3e
       0.0067196377 0.27913526 -0.151432 0.38339394
0001c0 78 33 92 bc 36 0c ec 3d 38 e2 50 be ce ed 2e 3e
       -0.017846808 0.115257666 -0.20398796 0.17082903
0001d0 ab 21 5d 3e 52 72 bc bd 77 42 10 3e 99 87 ac be
       0.21594875 -0.09201492 0.14087854 -0.33697203
0001e0 69 90 9b 3e 1f b6 31 3e dd fb 7e be eb ff 7c bc
       0.30383614 0.1735463 -0.24900766 -0.015441875
0001f0 25 b0 c1 3d 49 f6 14 bd 2c e7 0a 3d 27 c3 7e be
       0.09457425 -0.03636769 0.03391187 -0.24879132
000200 78 59 9d 3e c9 95 03 3b 2c 96 75 3e 22 5f 0e 3c
       0.30732322 0.0020078293 0.23983067 0.008689674
000210 38 d9 db ba ec f3 2b bf 4c 3d 4b be 01 11 18 be
       -0.001677311 -0.6716907 -0.19847602 -0.14850236
000220 b3 a9 c9 be 3a 34 9a 3d 2c 68 de be 1f 59 85 be
       -0.39387283 0.07529493 -0.43438852 -0.26044556
000230 6f ae 39 3e a7 49 07 be a4 af 21 be e2 c3 22 3e
       0.18132947 -0.1321169 -0.15789658 0.15895036
000240 e3 58 2a be e3 42 0b bc e1 43 37 be ae a9 ab be
       -0.1663547 -0.008499834 -0.17896987 -0.33527893
000250 62 a6 ee 3e 55 dd 4b bd da f2 4a 3e 7f ce e2 3c
       0.46611315 -0.049771626 0.19819203 0.027686356
000260 af 32 c3 bd e7 a5 1e 3e 76 a0 63 3e f4 ff c2 bd
       -0.095311515 0.15492974 0.2222918 -0.095214754
000270 db c7 bc 3d 5b 19 02 be 24 e0 56 be 52 bb f1 bd
       0.09217807 -0.12704985 -0.2098394 -0.11803307
000280 a5 dc d5 3d e9 8b 19 bd 62 34 45 bd 48 0f b7 be
       0.10442475 -0.037486944 -0.04814566 -0.35753846
000290 f1 93 a5 3e a8 9f 81 bc dc 39 9e 3d 48 10 27 3e
       0.32339433 -0.0158232 0.077258795 0.16314805
0002a0 e0 3a 10 3e e8 55 a6 3d 2a 95 03 3f e4 c3 b4 be
       0.14084959 0.08121854 0.5139948 -0.35305703
0002b0 f5 3b a1 3e 9a 14 4e be bd 91 3d 3d f6 4b 99 3d
       0.31491056 -0.20125046 0.046281565 0.074851915
0002c0 76 f2 51 bd 7b 8b 90 3e 80 17 a2 3d 1f 41 1d be
       -0.05125662 0.28231415 0.079146385 -0.15356873
0002d0 99 bc f6 3c 7d 2b f8 bd 57 4c 50 be f1 23 47 be
       0.030119227 -0.1211767 -0.20341621 -0.19447304
0002e0 44 71 30 3e c7 dc 1b bc c9 1f ea 3e e7 59 7a 3e
       0.17230707 -0.009513087 0.45727375 0.24448358
0002f0 56 03 c2 3e 70 c2 b8 3c a7 fb 0c bd 81 9d 77 3e
       0.3789317 0.022553653 -0.034419682 0.24181177
000300 f1 30 d2 bc 0a 58 ff 3d e0 d3 0f 3e 94 f2 1a be
       -0.025658103 0.12467964 0.14045668 -0.15131599
000310 db 36 c6 3e ca 67 90 be 82 d0 8d 3e 36 12 ab bd
       0.38713726 -0.28204185 0.2769814 -0.08353083
000320 87 68 02 3f ea cf 2c bc 51 e6 f4 bd 0b 14 27 be
       0.50940746 -0.010547617 -0.11957992 -0.1631624
000330 07 4a 90 3e 65 25 0c be 10 51 63 3e 3a f5 cd bd
       0.28181478 -0.1368614 0.22198892 -0.10056539
000340 5d 02 e8 3d 73 0b 0e be 87 f0 1b 3e 72 f8 a9 3a
       0.11328576 -0.13871555 0.15228473 0.0012967719
000350 53 c7 58 bd 03 04 32 be 03 46 04 3e be 67 81 3d
       -0.052924465 -0.17384343 0.12917332 0.063186154
000360 07 89 f5 3d e1 8a 03 3e 1e 8d da 3d 89 f9 46 be
       0.119890265 0.12845947 0.10671447 -0.19431128
000370 40 73 52 3e 0b db 90 be ba 1c a1 bc fe a2 61 be
       0.20551777 -0.28292117 -0.019667018 -0.22034833
000380 e9 40 14 be 00 db 35 bd d0 3f 4d bd ee 66 59 be
       -0.14477886 -0.044398308 -0.050109684 -0.21230671
000390 47 c8 c2 3c 2a 06 ee 3d a3 95 70 3e 57 22 a3 3c
       0.02377714 0.116222695 0.23494582 0.019913835
0003a0 07 90 97 3e 0d b1 c2 bd 3d 03 96 3c 9b 25 a2 be
       0.29602072 -0.09506426 0.018312091 -0.31669316
0003b0 ac 6c 90 3e b6 c7 13 be 11 05 fb 3d 31 31 8d 3d
       0.2820791 -0.14431652 0.12256826 0.06894148
0003c0 c3 cd 2d be 98 70 dd 3e f4 3e e2 be fa cf 3d be
       -0.16973023 0.43249965 -0.44188654 -0.18536368
0003d0 0c a8 bd 3d f8 75 88 3e db 00 99 be a0 d6 32 3d
       0.09260568 0.26652503 -0.29883465 0.043661714
0003e0 bc d1 9d 3e 90 e7 f2 3d 8e d9 8e 3e 15 59 46 be
       0.30824077 0.11860573 0.27900356 -0.1936992
0003f0 a2 b7 04 3d 08 83 69 bd 12 38 3a 3c 49 13 ce 3d
       0.03240169 -0.057009727 0.011365907 0.10062272
